{"leaky_re_lu_34": {"class_name": "LeakyReLU", "prev": ["batch_normalization_34"], "config": {"alpha": 0.10000000149011612, "trainable": true, "name": "leaky_re_lu_34"}, "input_shape": [20, 20, 256]}, "leaky_re_lu_35": {"class_name": "LeakyReLU", "prev": ["batch_normalization_35"], "config": {"alpha": 0.10000000149011612, "trainable": true, "name": "leaky_re_lu_35"}, "input_shape": [20, 20, 512]}, "leaky_re_lu_36": {"class_name": "LeakyReLU", "prev": ["batch_normalization_36"], "config": {"alpha": 0.10000000149011612, "trainable": true, "name": "leaky_re_lu_36"}, "input_shape": [20, 20, 256]}, "leaky_re_lu_37": {"class_name": "LeakyReLU", "prev": ["batch_normalization_37"], "config": {"alpha": 0.10000000149011612, "trainable": true, "name": "leaky_re_lu_37"}, "input_shape": [20, 20, 512]}, "leaky_re_lu_30": {"class_name": "LeakyReLU", "prev": ["batch_normalization_30"], "config": {"alpha": 0.10000000149011612, "trainable": true, "name": "leaky_re_lu_30"}, "input_shape": [20, 20, 256]}, "leaky_re_lu_31": {"class_name": "LeakyReLU", "prev": ["batch_normalization_31"], "config": {"alpha": 0.10000000149011612, "trainable": true, "name": "leaky_re_lu_31"}, "input_shape": [20, 20, 512]}, "leaky_re_lu_32": {"class_name": "LeakyReLU", "prev": ["batch_normalization_32"], "config": {"alpha": 0.10000000149011612, "trainable": true, "name": "leaky_re_lu_32"}, "input_shape": [20, 20, 256]}, "leaky_re_lu_33": {"class_name": "LeakyReLU", "prev": ["batch_normalization_33"], "config": {"alpha": 0.10000000149011612, "trainable": true, "name": "leaky_re_lu_33"}, "input_shape": [20, 20, 512]}, "conv2d_68": {"class_name": "Conv2D", "prev": ["leaky_re_lu_64"], "config": {"padding": "same", "kernel_initializer": {"class_name": "VarianceScaling", "config": {"distribution": "uniform", "scale": 1.0, "seed": null, "mode": "fan_avg"}}, "name": "conv2d_68", "bias_regularizer": null, "filters": 128, "bias_constraint": null, "activation": "linear", "trainable": true, "data_format": "channels_last", "kernel_constraint": null, "strides": [1, 1], "dilation_rate": [1, 1], "kernel_regularizer": {"class_name": "L1L2", "config": {"l2": 0.0005000000237487257, "l1": 0.0}}, "bias_initializer": {"class_name": "Zeros", "config": {}}, "use_bias": false, "activity_regularizer": null, "kernel_size": [1, 1]}, "input_shape": [20, 20, 256]}, "conv2d_69": {"class_name": "Conv2D", "prev": ["concatenate_2"], "config": {"padding": "same", "kernel_initializer": {"class_name": "VarianceScaling", "config": {"distribution": "uniform", "scale": 1.0, "seed": null, "mode": "fan_avg"}}, "name": "conv2d_69", "bias_regularizer": null, "filters": 128, "bias_constraint": null, "activation": "linear", "trainable": true, "data_format": "channels_last", "kernel_constraint": null, "strides": [1, 1], "dilation_rate": [1, 1], "kernel_regularizer": {"class_name": "L1L2", "config": {"l2": 0.0005000000237487257, "l1": 0.0}}, "bias_initializer": {"class_name": "Zeros", "config": {}}, "use_bias": false, "activity_regularizer": null, "kernel_size": [1, 1]}, "input_shape": [40, 40, 384]}, "leaky_re_lu_38": {"class_name": "LeakyReLU", "prev": ["batch_normalization_38"], "config": {"alpha": 0.10000000149011612, "trainable": true, "name": "leaky_re_lu_38"}, "input_shape": [20, 20, 256]}, "leaky_re_lu_39": {"class_name": "LeakyReLU", "prev": ["batch_normalization_39"], "config": {"alpha": 0.10000000149011612, "trainable": true, "name": "leaky_re_lu_39"}, "input_shape": [20, 20, 512]}, "leaky_re_lu_66": {"class_name": "LeakyReLU", "prev": ["batch_normalization_66"], "config": {"alpha": 0.10000000149011612, "trainable": true, "name": "leaky_re_lu_66"}, "input_shape": [20, 20, 128]}, "batch_normalization_8": {"class_name": "BatchNormalization", "prev": ["conv2d_8"], "config": {"gamma_initializer": {"class_name": "Ones", "config": {}}, "moving_mean_initializer": {"class_name": "Zeros", "config": {}}, "name": "batch_normalization_8", "epsilon": 0.001, "trainable": true, "center": true, "moving_variance_initializer": {"class_name": "Ones", "config": {}}, "beta_initializer": {"class_name": "Zeros", "config": {}}, "scale": true, "gamma_regularizer": null, "gamma_constraint": null, "beta_constraint": null, "beta_regularizer": null, "momentum": 0.99, "axis": -1}, "input_shape": [80, 80, 64]}, "batch_normalization_9": {"class_name": "BatchNormalization", "prev": ["conv2d_9"], "config": {"gamma_initializer": {"class_name": "Ones", "config": {}}, "moving_mean_initializer": {"class_name": "Zeros", "config": {}}, "name": "batch_normalization_9", "epsilon": 0.001, "trainable": true, "center": true, "moving_variance_initializer": {"class_name": "Ones", "config": {}}, "beta_initializer": {"class_name": "Zeros", "config": {}}, "scale": true, "gamma_regularizer": null, "gamma_constraint": null, "beta_constraint": null, "beta_regularizer": null, "momentum": 0.99, "axis": -1}, "input_shape": [80, 80, 128]}, "batch_normalization_2": {"class_name": "BatchNormalization", "prev": ["conv2d_2"], "config": {"gamma_initializer": {"class_name": "Ones", "config": {}}, "moving_mean_initializer": {"class_name": "Zeros", "config": {}}, "name": "batch_normalization_2", "epsilon": 0.001, "trainable": true, "center": true, "moving_variance_initializer": {"class_name": "Ones", "config": {}}, "beta_initializer": {"class_name": "Zeros", "config": {}}, "scale": true, "gamma_regularizer": null, "gamma_constraint": null, "beta_constraint": null, "beta_regularizer": null, "momentum": 0.99, "axis": -1}, "input_shape": [160, 160, 64]}, "batch_normalization_3": {"class_name": "BatchNormalization", "prev": ["conv2d_3"], "config": {"gamma_initializer": {"class_name": "Ones", "config": {}}, "moving_mean_initializer": {"class_name": "Zeros", "config": {}}, "name": "batch_normalization_3", "epsilon": 0.001, "trainable": true, "center": true, "moving_variance_initializer": {"class_name": "Ones", "config": {}}, "beta_initializer": {"class_name": "Zeros", "config": {}}, "scale": true, "gamma_regularizer": null, "gamma_constraint": null, "beta_constraint": null, "beta_regularizer": null, "momentum": 0.99, "axis": -1}, "input_shape": [160, 160, 32]}, "batch_normalization_1": {"class_name": "BatchNormalization", "prev": ["conv2d_1"], "config": {"gamma_initializer": {"class_name": "Ones", "config": {}}, "moving_mean_initializer": {"class_name": "Zeros", "config": {}}, "name": "batch_normalization_1", "epsilon": 0.001, "trainable": true, "center": true, "moving_variance_initializer": {"class_name": "Ones", "config": {}}, "beta_initializer": {"class_name": "Zeros", "config": {}}, "scale": true, "gamma_regularizer": null, "gamma_constraint": null, "beta_constraint": null, "beta_regularizer": null, "momentum": 0.99, "axis": -1}, "input_shape": [320, 320, 32]}, "batch_normalization_6": {"class_name": "BatchNormalization", "prev": ["conv2d_6"], "config": {"gamma_initializer": {"class_name": "Ones", "config": {}}, "moving_mean_initializer": {"class_name": "Zeros", "config": {}}, "name": "batch_normalization_6", "epsilon": 0.001, "trainable": true, "center": true, "moving_variance_initializer": {"class_name": "Ones", "config": {}}, "beta_initializer": {"class_name": "Zeros", "config": {}}, "scale": true, "gamma_regularizer": null, "gamma_constraint": null, "beta_constraint": null, "beta_regularizer": null, "momentum": 0.99, "axis": -1}, "input_shape": [80, 80, 64]}, "batch_normalization_7": {"class_name": "BatchNormalization", "prev": ["conv2d_7"], "config": {"gamma_initializer": {"class_name": "Ones", "config": {}}, "moving_mean_initializer": {"class_name": "Zeros", "config": {}}, "name": "batch_normalization_7", "epsilon": 0.001, "trainable": true, "center": true, "moving_variance_initializer": {"class_name": "Ones", "config": {}}, "beta_initializer": {"class_name": "Zeros", "config": {}}, "scale": true, "gamma_regularizer": null, "gamma_constraint": null, "beta_constraint": null, "beta_regularizer": null, "momentum": 0.99, "axis": -1}, "input_shape": [80, 80, 128]}, "batch_normalization_4": {"class_name": "BatchNormalization", "prev": ["conv2d_4"], "config": {"gamma_initializer": {"class_name": "Ones", "config": {}}, "moving_mean_initializer": {"class_name": "Zeros", "config": {}}, "name": "batch_normalization_4", "epsilon": 0.001, "trainable": true, "center": true, "moving_variance_initializer": {"class_name": "Ones", "config": {}}, "beta_initializer": {"class_name": "Zeros", "config": {}}, "scale": true, "gamma_regularizer": null, "gamma_constraint": null, "beta_constraint": null, "beta_regularizer": null, "momentum": 0.99, "axis": -1}, "input_shape": [160, 160, 64]}, "batch_normalization_5": {"class_name": "BatchNormalization", "prev": ["conv2d_5"], "config": {"gamma_initializer": {"class_name": "Ones", "config": {}}, "moving_mean_initializer": {"class_name": "Zeros", "config": {}}, "name": "batch_normalization_5", "epsilon": 0.001, "trainable": true, "center": true, "moving_variance_initializer": {"class_name": "Ones", "config": {}}, "beta_initializer": {"class_name": "Zeros", "config": {}}, "scale": true, "gamma_regularizer": null, "gamma_constraint": null, "beta_constraint": null, "beta_regularizer": null, "momentum": 0.99, "axis": -1}, "input_shape": [80, 80, 128]}, "leaky_re_lu_61": {"class_name": "LeakyReLU", "prev": ["batch_normalization_61"], "config": {"alpha": 0.10000000149011612, "trainable": true, "name": "leaky_re_lu_61"}, "input_shape": [20, 20, 512]}, "conv2d_66": {"class_name": "Conv2D", "prev": ["leaky_re_lu_64"], "config": {"padding": "same", "kernel_initializer": {"class_name": "VarianceScaling", "config": {"distribution": "uniform", "scale": 1.0, "seed": null, "mode": "fan_avg"}}, "name": "conv2d_66", "bias_regularizer": null, "filters": 512, "bias_constraint": null, "activation": "linear", "trainable": true, "data_format": "channels_last", "kernel_constraint": null, "strides": [1, 1], "dilation_rate": [1, 1], "kernel_regularizer": {"class_name": "L1L2", "config": {"l2": 0.0005000000237487257, "l1": 0.0}}, "bias_initializer": {"class_name": "Zeros", "config": {}}, "use_bias": false, "activity_regularizer": null, "kernel_size": [3, 3]}, "input_shape": [20, 20, 256]}, "conv2d_67": {"class_name": "Conv2D", "output": true, "prev": ["leaky_re_lu_65"], "config": {"padding": "same", "kernel_initializer": {"class_name": "VarianceScaling", "config": {"distribution": "uniform", "scale": 1.0, "seed": null, "mode": "fan_avg"}}, "name": "conv2d_67", "bias_regularizer": null, "filters": 255, "bias_constraint": null, "activation": "linear", "trainable": true, "data_format": "channels_last", "kernel_constraint": null, "strides": [1, 1], "dilation_rate": [1, 1], "kernel_regularizer": {"class_name": "L1L2", "config": {"l2": 0.0005000000237487257, "l1": 0.0}}, "bias_initializer": {"class_name": "Zeros", "config": {}}, "use_bias": true, "activity_regularizer": null, "kernel_size": [1, 1]}, "input_shape": [20, 20, 512]}, "leaky_re_lu_65": {"class_name": "LeakyReLU", "prev": ["batch_normalization_65"], "config": {"alpha": 0.10000000149011612, "trainable": true, "name": "leaky_re_lu_65"}, "input_shape": [20, 20, 512]}, "up_sampling2d_1": {"class_name": "UpSampling2D", "prev": ["leaky_re_lu_59"], "config": {"size": [2, 2], "interpolation": "nearest", "trainable": true, "name": "up_sampling2d_1", "data_format": "channels_last"}, "input_shape": [10, 10, 256]}, "leaky_re_lu_1": {"class_name": "LeakyReLU", "prev": ["batch_normalization_1"], "config": {"alpha": 0.10000000149011612, "trainable": true, "name": "leaky_re_lu_1"}, "input_shape": [320, 320, 32]}, "leaky_re_lu_2": {"class_name": "LeakyReLU", "prev": ["batch_normalization_2"], "config": {"alpha": 0.10000000149011612, "trainable": true, "name": "leaky_re_lu_2"}, "input_shape": [160, 160, 64]}, "leaky_re_lu_3": {"class_name": "LeakyReLU", "prev": ["batch_normalization_3"], "config": {"alpha": 0.10000000149011612, "trainable": true, "name": "leaky_re_lu_3"}, "input_shape": [160, 160, 32]}, "leaky_re_lu_4": {"class_name": "LeakyReLU", "prev": ["batch_normalization_4"], "config": {"alpha": 0.10000000149011612, "trainable": true, "name": "leaky_re_lu_4"}, "input_shape": [160, 160, 64]}, "leaky_re_lu_5": {"class_name": "LeakyReLU", "prev": ["batch_normalization_5"], "config": {"alpha": 0.10000000149011612, "trainable": true, "name": "leaky_re_lu_5"}, "input_shape": [80, 80, 128]}, "leaky_re_lu_6": {"class_name": "LeakyReLU", "prev": ["batch_normalization_6"], "config": {"alpha": 0.10000000149011612, "trainable": true, "name": "leaky_re_lu_6"}, "input_shape": [80, 80, 64]}, "leaky_re_lu_7": {"class_name": "LeakyReLU", "prev": ["batch_normalization_7"], "config": {"alpha": 0.10000000149011612, "trainable": true, "name": "leaky_re_lu_7"}, "input_shape": [80, 80, 128]}, "leaky_re_lu_8": {"class_name": "LeakyReLU", "prev": ["batch_normalization_8"], "config": {"alpha": 0.10000000149011612, "trainable": true, "name": "leaky_re_lu_8"}, "input_shape": [80, 80, 64]}, "leaky_re_lu_9": {"class_name": "LeakyReLU", "prev": ["batch_normalization_9"], "config": {"alpha": 0.10000000149011612, "trainable": true, "name": "leaky_re_lu_9"}, "input_shape": [80, 80, 128]}, "batch_normalization_72": {"class_name": "BatchNormalization", "prev": ["conv2d_74"], "config": {"gamma_initializer": {"class_name": "Ones", "config": {}}, "moving_mean_initializer": {"class_name": "Zeros", "config": {}}, "name": "batch_normalization_72", "epsilon": 0.001, "trainable": true, "center": true, "moving_variance_initializer": {"class_name": "Ones", "config": {}}, "beta_initializer": {"class_name": "Zeros", "config": {}}, "scale": true, "gamma_regularizer": null, "gamma_constraint": null, "beta_constraint": null, "beta_regularizer": null, "momentum": 0.99, "axis": -1}, "input_shape": [40, 40, 256]}, "batch_normalization_70": {"class_name": "BatchNormalization", "prev": ["conv2d_72"], "config": {"gamma_initializer": {"class_name": "Ones", "config": {}}, "moving_mean_initializer": {"class_name": "Zeros", "config": {}}, "name": "batch_normalization_70", "epsilon": 0.001, "trainable": true, "center": true, "moving_variance_initializer": {"class_name": "Ones", "config": {}}, "beta_initializer": {"class_name": "Zeros", "config": {}}, "scale": true, "gamma_regularizer": null, "gamma_constraint": null, "beta_constraint": null, "beta_regularizer": null, "momentum": 0.99, "axis": -1}, "input_shape": [40, 40, 256]}, "batch_normalization_71": {"class_name": "BatchNormalization", "prev": ["conv2d_73"], "config": {"gamma_initializer": {"class_name": "Ones", "config": {}}, "moving_mean_initializer": {"class_name": "Zeros", "config": {}}, "name": "batch_normalization_71", "epsilon": 0.001, "trainable": true, "center": true, "moving_variance_initializer": {"class_name": "Ones", "config": {}}, "beta_initializer": {"class_name": "Zeros", "config": {}}, "scale": true, "gamma_regularizer": null, "gamma_constraint": null, "beta_constraint": null, "beta_regularizer": null, "momentum": 0.99, "axis": -1}, "input_shape": [40, 40, 128]}, "conv2d_15": {"class_name": "Conv2D", "prev": ["add_5"], "config": {"padding": "same", "kernel_initializer": {"class_name": "VarianceScaling", "config": {"distribution": "uniform", "scale": 1.0, "seed": null, "mode": "fan_avg"}}, "name": "conv2d_15", "bias_regularizer": null, "filters": 128, "bias_constraint": null, "activation": "linear", "trainable": true, "data_format": "channels_last", "kernel_constraint": null, "strides": [1, 1], "dilation_rate": [1, 1], "kernel_regularizer": {"class_name": "L1L2", "config": {"l2": 0.0005000000237487257, "l1": 0.0}}, "bias_initializer": {"class_name": "Zeros", "config": {}}, "use_bias": false, "activity_regularizer": null, "kernel_size": [1, 1]}, "input_shape": [40, 40, 256]}, "conv2d_14": {"class_name": "Conv2D", "prev": ["leaky_re_lu_13"], "config": {"padding": "same", "kernel_initializer": {"class_name": "VarianceScaling", "config": {"distribution": "uniform", "scale": 1.0, "seed": null, "mode": "fan_avg"}}, "name": "conv2d_14", "bias_regularizer": null, "filters": 256, "bias_constraint": null, "activation": "linear", "trainable": true, "data_format": "channels_last", "kernel_constraint": null, "strides": [1, 1], "dilation_rate": [1, 1], "kernel_regularizer": {"class_name": "L1L2", "config": {"l2": 0.0005000000237487257, "l1": 0.0}}, "bias_initializer": {"class_name": "Zeros", "config": {}}, "use_bias": false, "activity_regularizer": null, "kernel_size": [3, 3]}, "input_shape": [40, 40, 128]}, "conv2d_17": {"class_name": "Conv2D", "prev": ["add_6"], "config": {"padding": "same", "kernel_initializer": {"class_name": "VarianceScaling", "config": {"distribution": "uniform", "scale": 1.0, "seed": null, "mode": "fan_avg"}}, "name": "conv2d_17", "bias_regularizer": null, "filters": 128, "bias_constraint": null, "activation": "linear", "trainable": true, "data_format": "channels_last", "kernel_constraint": null, "strides": [1, 1], "dilation_rate": [1, 1], "kernel_regularizer": {"class_name": "L1L2", "config": {"l2": 0.0005000000237487257, "l1": 0.0}}, "bias_initializer": {"class_name": "Zeros", "config": {}}, "use_bias": false, "activity_regularizer": null, "kernel_size": [1, 1]}, "input_shape": [40, 40, 256]}, "leaky_re_lu_20": {"class_name": "LeakyReLU", "prev": ["batch_normalization_20"], "config": {"alpha": 0.10000000149011612, "trainable": true, "name": "leaky_re_lu_20"}, "input_shape": [40, 40, 256]}, "conv2d_11": {"class_name": "Conv2D", "prev": ["leaky_re_lu_10"], "config": {"padding": "same", "kernel_initializer": {"class_name": "VarianceScaling", "config": {"distribution": "uniform", "scale": 1.0, "seed": null, "mode": "fan_avg"}}, "name": "conv2d_11", "bias_regularizer": null, "filters": 128, "bias_constraint": null, "activation": "linear", "trainable": true, "data_format": "channels_last", "kernel_constraint": null, "strides": [1, 1], "dilation_rate": [1, 1], "kernel_regularizer": {"class_name": "L1L2", "config": {"l2": 0.0005000000237487257, "l1": 0.0}}, "bias_initializer": {"class_name": "Zeros", "config": {}}, "use_bias": false, "activity_regularizer": null, "kernel_size": [1, 1]}, "input_shape": [40, 40, 256]}, "conv2d_10": {"class_name": "Conv2D", "prev": ["zero_padding2d_3"], "config": {"padding": "valid", "kernel_initializer": {"class_name": "VarianceScaling", "config": {"distribution": "uniform", "scale": 1.0, "seed": null, "mode": "fan_avg"}}, "name": "conv2d_10", "bias_regularizer": null, "filters": 256, "bias_constraint": null, "activation": "linear", "trainable": true, "data_format": "channels_last", "kernel_constraint": null, "strides": [2, 2], "dilation_rate": [1, 1], "kernel_regularizer": {"class_name": "L1L2", "config": {"l2": 0.0005000000237487257, "l1": 0.0}}, "bias_initializer": {"class_name": "Zeros", "config": {}}, "use_bias": false, "activity_regularizer": null, "kernel_size": [3, 3]}, "input_shape": [81, 81, 128]}, "conv2d_13": {"class_name": "Conv2D", "prev": ["add_4"], "config": {"padding": "same", "kernel_initializer": {"class_name": "VarianceScaling", "config": {"distribution": "uniform", "scale": 1.0, "seed": null, "mode": "fan_avg"}}, "name": "conv2d_13", "bias_regularizer": null, "filters": 128, "bias_constraint": null, "activation": "linear", "trainable": true, "data_format": "channels_last", "kernel_constraint": null, "strides": [1, 1], "dilation_rate": [1, 1], "kernel_regularizer": {"class_name": "L1L2", "config": {"l2": 0.0005000000237487257, "l1": 0.0}}, "bias_initializer": {"class_name": "Zeros", "config": {}}, "use_bias": false, "activity_regularizer": null, "kernel_size": [1, 1]}, "input_shape": [40, 40, 256]}, "leaky_re_lu_24": {"class_name": "LeakyReLU", "prev": ["batch_normalization_24"], "config": {"alpha": 0.10000000149011612, "trainable": true, "name": "leaky_re_lu_24"}, "input_shape": [40, 40, 256]}, "leaky_re_lu_29": {"class_name": "LeakyReLU", "prev": ["batch_normalization_29"], "config": {"alpha": 0.10000000149011612, "trainable": true, "name": "leaky_re_lu_29"}, "input_shape": [20, 20, 512]}, "leaky_re_lu_28": {"class_name": "LeakyReLU", "prev": ["batch_normalization_28"], "config": {"alpha": 0.10000000149011612, "trainable": true, "name": "leaky_re_lu_28"}, "input_shape": [20, 20, 256]}, "conv2d_19": {"class_name": "Conv2D", "prev": ["add_7"], "config": {"padding": "same", "kernel_initializer": {"class_name": "VarianceScaling", "config": {"distribution": "uniform", "scale": 1.0, "seed": null, "mode": "fan_avg"}}, "name": "conv2d_19", "bias_regularizer": null, "filters": 128, "bias_constraint": null, "activation": "linear", "trainable": true, "data_format": "channels_last", "kernel_constraint": null, "strides": [1, 1], "dilation_rate": [1, 1], "kernel_regularizer": {"class_name": "L1L2", "config": {"l2": 0.0005000000237487257, "l1": 0.0}}, "bias_initializer": {"class_name": "Zeros", "config": {}}, "use_bias": false, "activity_regularizer": null, "kernel_size": [1, 1]}, "input_shape": [40, 40, 256]}, "conv2d_18": {"class_name": "Conv2D", "prev": ["leaky_re_lu_17"], "config": {"padding": "same", "kernel_initializer": {"class_name": "VarianceScaling", "config": {"distribution": "uniform", "scale": 1.0, "seed": null, "mode": "fan_avg"}}, "name": "conv2d_18", "bias_regularizer": null, "filters": 256, "bias_constraint": null, "activation": "linear", "trainable": true, "data_format": "channels_last", "kernel_constraint": null, "strides": [1, 1], "dilation_rate": [1, 1], "kernel_regularizer": {"class_name": "L1L2", "config": {"l2": 0.0005000000237487257, "l1": 0.0}}, "bias_initializer": {"class_name": "Zeros", "config": {}}, "use_bias": false, "activity_regularizer": null, "kernel_size": [3, 3]}, "input_shape": [40, 40, 128]}, "conv2d_59": {"class_name": "Conv2D", "output": true, "prev": ["leaky_re_lu_58"], "config": {"padding": "same", "kernel_initializer": {"class_name": "VarianceScaling", "config": {"distribution": "uniform", "scale": 1.0, "seed": null, "mode": "fan_avg"}}, "name": "conv2d_59", "bias_regularizer": null, "filters": 255, "bias_constraint": null, "activation": "linear", "trainable": true, "data_format": "channels_last", "kernel_constraint": null, "strides": [1, 1], "dilation_rate": [1, 1], "kernel_regularizer": {"class_name": "L1L2", "config": {"l2": 0.0005000000237487257, "l1": 0.0}}, "bias_initializer": {"class_name": "Zeros", "config": {}}, "use_bias": true, "activity_regularizer": null, "kernel_size": [1, 1]}, "input_shape": [10, 10, 1024]}, "leaky_re_lu_60": {"class_name": "LeakyReLU", "prev": ["batch_normalization_60"], "config": {"alpha": 0.10000000149011612, "trainable": true, "name": "leaky_re_lu_60"}, "input_shape": [20, 20, 256]}, "batch_normalization_51": {"class_name": "BatchNormalization", "prev": ["conv2d_51"], "config": {"gamma_initializer": {"class_name": "Ones", "config": {}}, "moving_mean_initializer": {"class_name": "Zeros", "config": {}}, "name": "batch_normalization_51", "epsilon": 0.001, "trainable": true, "center": true, "moving_variance_initializer": {"class_name": "Ones", "config": {}}, "beta_initializer": {"class_name": "Zeros", "config": {}}, "scale": true, "gamma_regularizer": null, "gamma_constraint": null, "beta_constraint": null, "beta_regularizer": null, "momentum": 0.99, "axis": -1}, "input_shape": [10, 10, 512]}, "conv2d_62": {"class_name": "Conv2D", "prev": ["leaky_re_lu_60"], "config": {"padding": "same", "kernel_initializer": {"class_name": "VarianceScaling", "config": {"distribution": "uniform", "scale": 1.0, "seed": null, "mode": "fan_avg"}}, "name": "conv2d_62", "bias_regularizer": null, "filters": 512, "bias_constraint": null, "activation": "linear", "trainable": true, "data_format": "channels_last", "kernel_constraint": null, "strides": [1, 1], "dilation_rate": [1, 1], "kernel_regularizer": {"class_name": "L1L2", "config": {"l2": 0.0005000000237487257, "l1": 0.0}}, "bias_initializer": {"class_name": "Zeros", "config": {}}, "use_bias": false, "activity_regularizer": null, "kernel_size": [3, 3]}, "input_shape": [20, 20, 256]}, "leaky_re_lu_64": {"class_name": "LeakyReLU", "prev": ["batch_normalization_64"], "config": {"alpha": 0.10000000149011612, "trainable": true, "name": "leaky_re_lu_64"}, "input_shape": [20, 20, 256]}, "leaky_re_lu_70": {"class_name": "LeakyReLU", "prev": ["batch_normalization_70"], "config": {"alpha": 0.10000000149011612, "trainable": true, "name": "leaky_re_lu_70"}, "input_shape": [40, 40, 256]}, "conv2d_58": {"class_name": "Conv2D", "prev": ["leaky_re_lu_57"], "config": {"padding": "same", "kernel_initializer": {"class_name": "VarianceScaling", "config": {"distribution": "uniform", "scale": 1.0, "seed": null, "mode": "fan_avg"}}, "name": "conv2d_58", "bias_regularizer": null, "filters": 1024, "bias_constraint": null, "activation": "linear", "trainable": true, "data_format": "channels_last", "kernel_constraint": null, "strides": [1, 1], "dilation_rate": [1, 1], "kernel_regularizer": {"class_name": "L1L2", "config": {"l2": 0.0005000000237487257, "l1": 0.0}}, "bias_initializer": {"class_name": "Zeros", "config": {}}, "use_bias": false, "activity_regularizer": null, "kernel_size": [3, 3]}, "input_shape": [10, 10, 512]}, "batch_normalization_69": {"class_name": "BatchNormalization", "prev": ["conv2d_71"], "config": {"gamma_initializer": {"class_name": "Ones", "config": {}}, "moving_mean_initializer": {"class_name": "Zeros", "config": {}}, "name": "batch_normalization_69", "epsilon": 0.001, "trainable": true, "center": true, "moving_variance_initializer": {"class_name": "Ones", "config": {}}, "beta_initializer": {"class_name": "Zeros", "config": {}}, "scale": true, "gamma_regularizer": null, "gamma_constraint": null, "beta_constraint": null, "beta_regularizer": null, "momentum": 0.99, "axis": -1}, "input_shape": [40, 40, 128]}, "batch_normalization_68": {"class_name": "BatchNormalization", "prev": ["conv2d_70"], "config": {"gamma_initializer": {"class_name": "Ones", "config": {}}, "moving_mean_initializer": {"class_name": "Zeros", "config": {}}, "name": "batch_normalization_68", "epsilon": 0.001, "trainable": true, "center": true, "moving_variance_initializer": {"class_name": "Ones", "config": {}}, "beta_initializer": {"class_name": "Zeros", "config": {}}, "scale": true, "gamma_regularizer": null, "gamma_constraint": null, "beta_constraint": null, "beta_regularizer": null, "momentum": 0.99, "axis": -1}, "input_shape": [40, 40, 256]}, "batch_normalization_65": {"class_name": "BatchNormalization", "prev": ["conv2d_66"], "config": {"gamma_initializer": {"class_name": "Ones", "config": {}}, "moving_mean_initializer": {"class_name": "Zeros", "config": {}}, "name": "batch_normalization_65", "epsilon": 0.001, "trainable": true, "center": true, "moving_variance_initializer": {"class_name": "Ones", "config": {}}, "beta_initializer": {"class_name": "Zeros", "config": {}}, "scale": true, "gamma_regularizer": null, "gamma_constraint": null, "beta_constraint": null, "beta_regularizer": null, "momentum": 0.99, "axis": -1}, "input_shape": [20, 20, 512]}, "batch_normalization_64": {"class_name": "BatchNormalization", "prev": ["conv2d_65"], "config": {"gamma_initializer": {"class_name": "Ones", "config": {}}, "moving_mean_initializer": {"class_name": "Zeros", "config": {}}, "name": "batch_normalization_64", "epsilon": 0.001, "trainable": true, "center": true, "moving_variance_initializer": {"class_name": "Ones", "config": {}}, "beta_initializer": {"class_name": "Zeros", "config": {}}, "scale": true, "gamma_regularizer": null, "gamma_constraint": null, "beta_constraint": null, "beta_regularizer": null, "momentum": 0.99, "axis": -1}, "input_shape": [20, 20, 256]}, "batch_normalization_67": {"class_name": "BatchNormalization", "prev": ["conv2d_69"], "config": {"gamma_initializer": {"class_name": "Ones", "config": {}}, "moving_mean_initializer": {"class_name": "Zeros", "config": {}}, "name": "batch_normalization_67", "epsilon": 0.001, "trainable": true, "center": true, "moving_variance_initializer": {"class_name": "Ones", "config": {}}, "beta_initializer": {"class_name": "Zeros", "config": {}}, "scale": true, "gamma_regularizer": null, "gamma_constraint": null, "beta_constraint": null, "beta_regularizer": null, "momentum": 0.99, "axis": -1}, "input_shape": [40, 40, 128]}, "batch_normalization_57": {"class_name": "BatchNormalization", "prev": ["conv2d_57"], "config": {"gamma_initializer": {"class_name": "Ones", "config": {}}, "moving_mean_initializer": {"class_name": "Zeros", "config": {}}, "name": "batch_normalization_57", "epsilon": 0.001, "trainable": true, "center": true, "moving_variance_initializer": {"class_name": "Ones", "config": {}}, "beta_initializer": {"class_name": "Zeros", "config": {}}, "scale": true, "gamma_regularizer": null, "gamma_constraint": null, "beta_constraint": null, "beta_regularizer": null, "momentum": 0.99, "axis": -1}, "input_shape": [10, 10, 512]}, "batch_normalization_61": {"class_name": "BatchNormalization", "prev": ["conv2d_62"], "config": {"gamma_initializer": {"class_name": "Ones", "config": {}}, "moving_mean_initializer": {"class_name": "Zeros", "config": {}}, "name": "batch_normalization_61", "epsilon": 0.001, "trainable": true, "center": true, "moving_variance_initializer": {"class_name": "Ones", "config": {}}, "beta_initializer": {"class_name": "Zeros", "config": {}}, "scale": true, "gamma_regularizer": null, "gamma_constraint": null, "beta_constraint": null, "beta_regularizer": null, "momentum": 0.99, "axis": -1}, "input_shape": [20, 20, 512]}, "batch_normalization_60": {"class_name": "BatchNormalization", "prev": ["conv2d_61"], "config": {"gamma_initializer": {"class_name": "Ones", "config": {}}, "moving_mean_initializer": {"class_name": "Zeros", "config": {}}, "name": "batch_normalization_60", "epsilon": 0.001, "trainable": true, "center": true, "moving_variance_initializer": {"class_name": "Ones", "config": {}}, "beta_initializer": {"class_name": "Zeros", "config": {}}, "scale": true, "gamma_regularizer": null, "gamma_constraint": null, "beta_constraint": null, "beta_regularizer": null, "momentum": 0.99, "axis": -1}, "input_shape": [20, 20, 256]}, "batch_normalization_63": {"class_name": "BatchNormalization", "prev": ["conv2d_64"], "config": {"gamma_initializer": {"class_name": "Ones", "config": {}}, "moving_mean_initializer": {"class_name": "Zeros", "config": {}}, "name": "batch_normalization_63", "epsilon": 0.001, "trainable": true, "center": true, "moving_variance_initializer": {"class_name": "Ones", "config": {}}, "beta_initializer": {"class_name": "Zeros", "config": {}}, "scale": true, "gamma_regularizer": null, "gamma_constraint": null, "beta_constraint": null, "beta_regularizer": null, "momentum": 0.99, "axis": -1}, "input_shape": [20, 20, 512]}, "batch_normalization_62": {"class_name": "BatchNormalization", "prev": ["conv2d_63"], "config": {"gamma_initializer": {"class_name": "Ones", "config": {}}, "moving_mean_initializer": {"class_name": "Zeros", "config": {}}, "name": "batch_normalization_62", "epsilon": 0.001, "trainable": true, "center": true, "moving_variance_initializer": {"class_name": "Ones", "config": {}}, "beta_initializer": {"class_name": "Zeros", "config": {}}, "scale": true, "gamma_regularizer": null, "gamma_constraint": null, "beta_constraint": null, "beta_regularizer": null, "momentum": 0.99, "axis": -1}, "input_shape": [20, 20, 256]}, "batch_normalization_47": {"class_name": "BatchNormalization", "prev": ["conv2d_47"], "config": {"gamma_initializer": {"class_name": "Ones", "config": {}}, "moving_mean_initializer": {"class_name": "Zeros", "config": {}}, "name": "batch_normalization_47", "epsilon": 0.001, "trainable": true, "center": true, "moving_variance_initializer": {"class_name": "Ones", "config": {}}, "beta_initializer": {"class_name": "Zeros", "config": {}}, "scale": true, "gamma_regularizer": null, "gamma_constraint": null, "beta_constraint": null, "beta_regularizer": null, "momentum": 0.99, "axis": -1}, "input_shape": [10, 10, 512]}, "batch_normalization_46": {"class_name": "BatchNormalization", "prev": ["conv2d_46"], "config": {"gamma_initializer": {"class_name": "Ones", "config": {}}, "moving_mean_initializer": {"class_name": "Zeros", "config": {}}, "name": "batch_normalization_46", "epsilon": 0.001, "trainable": true, "center": true, "moving_variance_initializer": {"class_name": "Ones", "config": {}}, "beta_initializer": {"class_name": "Zeros", "config": {}}, "scale": true, "gamma_regularizer": null, "gamma_constraint": null, "beta_constraint": null, "beta_regularizer": null, "momentum": 0.99, "axis": -1}, "input_shape": [10, 10, 1024]}, "up_sampling2d_2": {"class_name": "UpSampling2D", "prev": ["leaky_re_lu_66"], "config": {"size": [2, 2], "interpolation": "nearest", "trainable": true, "name": "up_sampling2d_2", "data_format": "channels_last"}, "input_shape": [20, 20, 128]}, "add_1": {"class_name": "Add", "prev": ["leaky_re_lu_2", "leaky_re_lu_4"], "config": {"trainable": true, "name": "add_1"}, "input_shape": [[null, 160, 160, 64]]}, "leaky_re_lu_57": {"class_name": "LeakyReLU", "prev": ["batch_normalization_57"], "config": {"alpha": 0.10000000149011612, "trainable": true, "name": "leaky_re_lu_57"}, "input_shape": [10, 10, 512]}, "add_3": {"class_name": "Add", "prev": ["add_2", "leaky_re_lu_9"], "config": {"trainable": true, "name": "add_3"}, "input_shape": [[null, 80, 80, 128]]}, "add_2": {"class_name": "Add", "prev": ["leaky_re_lu_5", "leaky_re_lu_7"], "config": {"trainable": true, "name": "add_2"}, "input_shape": [[null, 80, 80, 128]]}, "add_5": {"class_name": "Add", "prev": ["add_4", "leaky_re_lu_14"], "config": {"trainable": true, "name": "add_5"}, "input_shape": [[null, 40, 40, 256]]}, "add_4": {"class_name": "Add", "prev": ["leaky_re_lu_10", "leaky_re_lu_12"], "config": {"trainable": true, "name": "add_4"}, "input_shape": [[null, 40, 40, 256]]}, "add_7": {"class_name": "Add", "prev": ["add_6", "leaky_re_lu_18"], "config": {"trainable": true, "name": "add_7"}, "input_shape": [[null, 40, 40, 256]]}, "add_6": {"class_name": "Add", "prev": ["add_5", "leaky_re_lu_16"], "config": {"trainable": true, "name": "add_6"}, "input_shape": [[null, 40, 40, 256]]}, "add_9": {"class_name": "Add", "prev": ["add_8", "leaky_re_lu_22"], "config": {"trainable": true, "name": "add_9"}, "input_shape": [[null, 40, 40, 256]]}, "add_8": {"class_name": "Add", "prev": ["add_7", "leaky_re_lu_20"], "config": {"trainable": true, "name": "add_8"}, "input_shape": [[null, 40, 40, 256]]}, "leaky_re_lu_58": {"class_name": "LeakyReLU", "prev": ["batch_normalization_58"], "config": {"alpha": 0.10000000149011612, "trainable": true, "name": "leaky_re_lu_58"}, "input_shape": [10, 10, 1024]}, "leaky_re_lu_59": {"class_name": "LeakyReLU", "prev": ["batch_normalization_59"], "config": {"alpha": 0.10000000149011612, "trainable": true, "name": "leaky_re_lu_59"}, "input_shape": [10, 10, 256]}, "leaky_re_lu_52": {"class_name": "LeakyReLU", "prev": ["batch_normalization_52"], "config": {"alpha": 0.10000000149011612, "trainable": true, "name": "leaky_re_lu_52"}, "input_shape": [10, 10, 1024]}, "leaky_re_lu_53": {"class_name": "LeakyReLU", "prev": ["batch_normalization_53"], "config": {"alpha": 0.10000000149011612, "trainable": true, "name": "leaky_re_lu_53"}, "input_shape": [10, 10, 512]}, "batch_normalization_58": {"class_name": "BatchNormalization", "prev": ["conv2d_58"], "config": {"gamma_initializer": {"class_name": "Ones", "config": {}}, "moving_mean_initializer": {"class_name": "Zeros", "config": {}}, "name": "batch_normalization_58", "epsilon": 0.001, "trainable": true, "center": true, "moving_variance_initializer": {"class_name": "Ones", "config": {}}, "beta_initializer": {"class_name": "Zeros", "config": {}}, "scale": true, "gamma_regularizer": null, "gamma_constraint": null, "beta_constraint": null, "beta_regularizer": null, "momentum": 0.99, "axis": -1}, "input_shape": [10, 10, 1024]}, "batch_normalization_59": {"class_name": "BatchNormalization", "prev": ["conv2d_60"], "config": {"gamma_initializer": {"class_name": "Ones", "config": {}}, "moving_mean_initializer": {"class_name": "Zeros", "config": {}}, "name": "batch_normalization_59", "epsilon": 0.001, "trainable": true, "center": true, "moving_variance_initializer": {"class_name": "Ones", "config": {}}, "beta_initializer": {"class_name": "Zeros", "config": {}}, "scale": true, "gamma_regularizer": null, "gamma_constraint": null, "beta_constraint": null, "beta_regularizer": null, "momentum": 0.99, "axis": -1}, "input_shape": [10, 10, 256]}, "zero_padding2d_5": {"class_name": "ZeroPadding2D", "prev": ["add_19"], "config": {"padding": [[1, 0], [1, 0]], "trainable": true, "name": "zero_padding2d_5", "data_format": "channels_last"}, "input_shape": [20, 20, 512]}, "zero_padding2d_4": {"class_name": "ZeroPadding2D", "prev": ["add_11"], "config": {"padding": [[1, 0], [1, 0]], "trainable": true, "name": "zero_padding2d_4", "data_format": "channels_last"}, "input_shape": [40, 40, 256]}, "zero_padding2d_3": {"class_name": "ZeroPadding2D", "prev": ["add_3"], "config": {"padding": [[1, 0], [1, 0]], "trainable": true, "name": "zero_padding2d_3", "data_format": "channels_last"}, "input_shape": [80, 80, 128]}, "zero_padding2d_2": {"class_name": "ZeroPadding2D", "prev": ["add_1"], "config": {"padding": [[1, 0], [1, 0]], "trainable": true, "name": "zero_padding2d_2", "data_format": "channels_last"}, "input_shape": [160, 160, 64]}, "zero_padding2d_1": {"class_name": "ZeroPadding2D", "prev": ["leaky_re_lu_1"], "config": {"padding": [[1, 0], [1, 0]], "trainable": true, "name": "zero_padding2d_1", "data_format": "channels_last"}, "input_shape": [320, 320, 32]}, "input_1": {"class_name": "InputLayer", "config": {"dtype": "float32", "batch_input_shape": [null, 320, 320, 3], "name": "input_1", "sparse": false}, "input_shape": [320, 320, 3]}, "batch_normalization_50": {"class_name": "BatchNormalization", "prev": ["conv2d_50"], "config": {"gamma_initializer": {"class_name": "Ones", "config": {}}, "moving_mean_initializer": {"class_name": "Zeros", "config": {}}, "name": "batch_normalization_50", "epsilon": 0.001, "trainable": true, "center": true, "moving_variance_initializer": {"class_name": "Ones", "config": {}}, "beta_initializer": {"class_name": "Zeros", "config": {}}, "scale": true, "gamma_regularizer": null, "gamma_constraint": null, "beta_constraint": null, "beta_regularizer": null, "momentum": 0.99, "axis": -1}, "input_shape": [10, 10, 1024]}, "add_20": {"class_name": "Add", "prev": ["leaky_re_lu_44", "leaky_re_lu_46"], "config": {"trainable": true, "name": "add_20"}, "input_shape": [[null, 10, 10, 1024]]}, "batch_normalization_52": {"class_name": "BatchNormalization", "prev": ["conv2d_52"], "config": {"gamma_initializer": {"class_name": "Ones", "config": {}}, "moving_mean_initializer": {"class_name": "Zeros", "config": {}}, "name": "batch_normalization_52", "epsilon": 0.001, "trainable": true, "center": true, "moving_variance_initializer": {"class_name": "Ones", "config": {}}, "beta_initializer": {"class_name": "Zeros", "config": {}}, "scale": true, "gamma_regularizer": null, "gamma_constraint": null, "beta_constraint": null, "beta_regularizer": null, "momentum": 0.99, "axis": -1}, "input_shape": [10, 10, 1024]}, "batch_normalization_53": {"class_name": "BatchNormalization", "prev": ["conv2d_53"], "config": {"gamma_initializer": {"class_name": "Ones", "config": {}}, "moving_mean_initializer": {"class_name": "Zeros", "config": {}}, "name": "batch_normalization_53", "epsilon": 0.001, "trainable": true, "center": true, "moving_variance_initializer": {"class_name": "Ones", "config": {}}, "beta_initializer": {"class_name": "Zeros", "config": {}}, "scale": true, "gamma_regularizer": null, "gamma_constraint": null, "beta_constraint": null, "beta_regularizer": null, "momentum": 0.99, "axis": -1}, "input_shape": [10, 10, 512]}, "batch_normalization_54": {"class_name": "BatchNormalization", "prev": ["conv2d_54"], "config": {"gamma_initializer": {"class_name": "Ones", "config": {}}, "moving_mean_initializer": {"class_name": "Zeros", "config": {}}, "name": "batch_normalization_54", "epsilon": 0.001, "trainable": true, "center": true, "moving_variance_initializer": {"class_name": "Ones", "config": {}}, "beta_initializer": {"class_name": "Zeros", "config": {}}, "scale": true, "gamma_regularizer": null, "gamma_constraint": null, "beta_constraint": null, "beta_regularizer": null, "momentum": 0.99, "axis": -1}, "input_shape": [10, 10, 1024]}, "batch_normalization_55": {"class_name": "BatchNormalization", "prev": ["conv2d_55"], "config": {"gamma_initializer": {"class_name": "Ones", "config": {}}, "moving_mean_initializer": {"class_name": "Zeros", "config": {}}, "name": "batch_normalization_55", "epsilon": 0.001, "trainable": true, "center": true, "moving_variance_initializer": {"class_name": "Ones", "config": {}}, "beta_initializer": {"class_name": "Zeros", "config": {}}, "scale": true, "gamma_regularizer": null, "gamma_constraint": null, "beta_constraint": null, "beta_regularizer": null, "momentum": 0.99, "axis": -1}, "input_shape": [10, 10, 512]}, "batch_normalization_56": {"class_name": "BatchNormalization", "prev": ["conv2d_56"], "config": {"gamma_initializer": {"class_name": "Ones", "config": {}}, "moving_mean_initializer": {"class_name": "Zeros", "config": {}}, "name": "batch_normalization_56", "epsilon": 0.001, "trainable": true, "center": true, "moving_variance_initializer": {"class_name": "Ones", "config": {}}, "beta_initializer": {"class_name": "Zeros", "config": {}}, "scale": true, "gamma_regularizer": null, "gamma_constraint": null, "beta_constraint": null, "beta_regularizer": null, "momentum": 0.99, "axis": -1}, "input_shape": [10, 10, 1024]}, "add_21": {"class_name": "Add", "prev": ["add_20", "leaky_re_lu_48"], "config": {"trainable": true, "name": "add_21"}, "input_shape": [[null, 10, 10, 1024]]}, "add_19": {"class_name": "Add", "prev": ["add_18", "leaky_re_lu_43"], "config": {"trainable": true, "name": "add_19"}, "input_shape": [[null, 20, 20, 512]]}, "add_18": {"class_name": "Add", "prev": ["add_17", "leaky_re_lu_41"], "config": {"trainable": true, "name": "add_18"}, "input_shape": [[null, 20, 20, 512]]}, "batch_normalization_45": {"class_name": "BatchNormalization", "prev": ["conv2d_45"], "config": {"gamma_initializer": {"class_name": "Ones", "config": {}}, "moving_mean_initializer": {"class_name": "Zeros", "config": {}}, "name": "batch_normalization_45", "epsilon": 0.001, "trainable": true, "center": true, "moving_variance_initializer": {"class_name": "Ones", "config": {}}, "beta_initializer": {"class_name": "Zeros", "config": {}}, "scale": true, "gamma_regularizer": null, "gamma_constraint": null, "beta_constraint": null, "beta_regularizer": null, "momentum": 0.99, "axis": -1}, "input_shape": [10, 10, 512]}, "batch_normalization_44": {"class_name": "BatchNormalization", "prev": ["conv2d_44"], "config": {"gamma_initializer": {"class_name": "Ones", "config": {}}, "moving_mean_initializer": {"class_name": "Zeros", "config": {}}, "name": "batch_normalization_44", "epsilon": 0.001, "trainable": true, "center": true, "moving_variance_initializer": {"class_name": "Ones", "config": {}}, "beta_initializer": {"class_name": "Zeros", "config": {}}, "scale": true, "gamma_regularizer": null, "gamma_constraint": null, "beta_constraint": null, "beta_regularizer": null, "momentum": 0.99, "axis": -1}, "input_shape": [10, 10, 1024]}, "batch_normalization_43": {"class_name": "BatchNormalization", "prev": ["conv2d_43"], "config": {"gamma_initializer": {"class_name": "Ones", "config": {}}, "moving_mean_initializer": {"class_name": "Zeros", "config": {}}, "name": "batch_normalization_43", "epsilon": 0.001, "trainable": true, "center": true, "moving_variance_initializer": {"class_name": "Ones", "config": {}}, "beta_initializer": {"class_name": "Zeros", "config": {}}, "scale": true, "gamma_regularizer": null, "gamma_constraint": null, "beta_constraint": null, "beta_regularizer": null, "momentum": 0.99, "axis": -1}, "input_shape": [20, 20, 512]}, "batch_normalization_42": {"class_name": "BatchNormalization", "prev": ["conv2d_42"], "config": {"gamma_initializer": {"class_name": "Ones", "config": {}}, "moving_mean_initializer": {"class_name": "Zeros", "config": {}}, "name": "batch_normalization_42", "epsilon": 0.001, "trainable": true, "center": true, "moving_variance_initializer": {"class_name": "Ones", "config": {}}, "beta_initializer": {"class_name": "Zeros", "config": {}}, "scale": true, "gamma_regularizer": null, "gamma_constraint": null, "beta_constraint": null, "beta_regularizer": null, "momentum": 0.99, "axis": -1}, "input_shape": [20, 20, 256]}, "batch_normalization_41": {"class_name": "BatchNormalization", "prev": ["conv2d_41"], "config": {"gamma_initializer": {"class_name": "Ones", "config": {}}, "moving_mean_initializer": {"class_name": "Zeros", "config": {}}, "name": "batch_normalization_41", "epsilon": 0.001, "trainable": true, "center": true, "moving_variance_initializer": {"class_name": "Ones", "config": {}}, "beta_initializer": {"class_name": "Zeros", "config": {}}, "scale": true, "gamma_regularizer": null, "gamma_constraint": null, "beta_constraint": null, "beta_regularizer": null, "momentum": 0.99, "axis": -1}, "input_shape": [20, 20, 512]}, "batch_normalization_40": {"class_name": "BatchNormalization", "prev": ["conv2d_40"], "config": {"gamma_initializer": {"class_name": "Ones", "config": {}}, "moving_mean_initializer": {"class_name": "Zeros", "config": {}}, "name": "batch_normalization_40", "epsilon": 0.001, "trainable": true, "center": true, "moving_variance_initializer": {"class_name": "Ones", "config": {}}, "beta_initializer": {"class_name": "Zeros", "config": {}}, "scale": true, "gamma_regularizer": null, "gamma_constraint": null, "beta_constraint": null, "beta_regularizer": null, "momentum": 0.99, "axis": -1}, "input_shape": [20, 20, 256]}, "add_11": {"class_name": "Add", "prev": ["add_10", "leaky_re_lu_26"], "config": {"trainable": true, "name": "add_11"}, "input_shape": [[null, 40, 40, 256]]}, "add_10": {"class_name": "Add", "prev": ["add_9", "leaky_re_lu_24"], "config": {"trainable": true, "name": "add_10"}, "input_shape": [[null, 40, 40, 256]]}, "add_13": {"class_name": "Add", "prev": ["add_12", "leaky_re_lu_31"], "config": {"trainable": true, "name": "add_13"}, "input_shape": [[null, 20, 20, 512]]}, "add_12": {"class_name": "Add", "prev": ["leaky_re_lu_27", "leaky_re_lu_29"], "config": {"trainable": true, "name": "add_12"}, "input_shape": [[null, 20, 20, 512]]}, "add_15": {"class_name": "Add", "prev": ["add_14", "leaky_re_lu_35"], "config": {"trainable": true, "name": "add_15"}, "input_shape": [[null, 20, 20, 512]]}, "add_14": {"class_name": "Add", "prev": ["add_13", "leaky_re_lu_33"], "config": {"trainable": true, "name": "add_14"}, "input_shape": [[null, 20, 20, 512]]}, "add_17": {"class_name": "Add", "prev": ["add_16", "leaky_re_lu_39"], "config": {"trainable": true, "name": "add_17"}, "input_shape": [[null, 20, 20, 512]]}, "add_16": {"class_name": "Add", "prev": ["add_15", "leaky_re_lu_37"], "config": {"trainable": true, "name": "add_16"}, "input_shape": [[null, 20, 20, 512]]}, "leaky_re_lu_45": {"class_name": "LeakyReLU", "prev": ["batch_normalization_45"], "config": {"alpha": 0.10000000149011612, "trainable": true, "name": "leaky_re_lu_45"}, "input_shape": [10, 10, 512]}, "leaky_re_lu_44": {"class_name": "LeakyReLU", "prev": ["batch_normalization_44"], "config": {"alpha": 0.10000000149011612, "trainable": true, "name": "leaky_re_lu_44"}, "input_shape": [10, 10, 1024]}, "conv2d_42": {"class_name": "Conv2D", "prev": ["add_18"], "config": {"padding": "same", "kernel_initializer": {"class_name": "VarianceScaling", "config": {"distribution": "uniform", "scale": 1.0, "seed": null, "mode": "fan_avg"}}, "name": "conv2d_42", "bias_regularizer": null, "filters": 256, "bias_constraint": null, "activation": "linear", "trainable": true, "data_format": "channels_last", "kernel_constraint": null, "strides": [1, 1], "dilation_rate": [1, 1], "kernel_regularizer": {"class_name": "L1L2", "config": {"l2": 0.0005000000237487257, "l1": 0.0}}, "bias_initializer": {"class_name": "Zeros", "config": {}}, "use_bias": false, "activity_regularizer": null, "kernel_size": [1, 1]}, "input_shape": [20, 20, 512]}, "leaky_re_lu_46": {"class_name": "LeakyReLU", "prev": ["batch_normalization_46"], "config": {"alpha": 0.10000000149011612, "trainable": true, "name": "leaky_re_lu_46"}, "input_shape": [10, 10, 1024]}, "leaky_re_lu_41": {"class_name": "LeakyReLU", "prev": ["batch_normalization_41"], "config": {"alpha": 0.10000000149011612, "trainable": true, "name": "leaky_re_lu_41"}, "input_shape": [20, 20, 512]}, "leaky_re_lu_40": {"class_name": "LeakyReLU", "prev": ["batch_normalization_40"], "config": {"alpha": 0.10000000149011612, "trainable": true, "name": "leaky_re_lu_40"}, "input_shape": [20, 20, 256]}, "leaky_re_lu_43": {"class_name": "LeakyReLU", "prev": ["batch_normalization_43"], "config": {"alpha": 0.10000000149011612, "trainable": true, "name": "leaky_re_lu_43"}, "input_shape": [20, 20, 512]}, "leaky_re_lu_42": {"class_name": "LeakyReLU", "prev": ["batch_normalization_42"], "config": {"alpha": 0.10000000149011612, "trainable": true, "name": "leaky_re_lu_42"}, "input_shape": [20, 20, 256]}, "batch_normalization_48": {"class_name": "BatchNormalization", "prev": ["conv2d_48"], "config": {"gamma_initializer": {"class_name": "Ones", "config": {}}, "moving_mean_initializer": {"class_name": "Zeros", "config": {}}, "name": "batch_normalization_48", "epsilon": 0.001, "trainable": true, "center": true, "moving_variance_initializer": {"class_name": "Ones", "config": {}}, "beta_initializer": {"class_name": "Zeros", "config": {}}, "scale": true, "gamma_regularizer": null, "gamma_constraint": null, "beta_constraint": null, "beta_regularizer": null, "momentum": 0.99, "axis": -1}, "input_shape": [10, 10, 1024]}, "leaky_re_lu_49": {"class_name": "LeakyReLU", "prev": ["batch_normalization_49"], "config": {"alpha": 0.10000000149011612, "trainable": true, "name": "leaky_re_lu_49"}, "input_shape": [10, 10, 512]}, "leaky_re_lu_48": {"class_name": "LeakyReLU", "prev": ["batch_normalization_48"], "config": {"alpha": 0.10000000149011612, "trainable": true, "name": "leaky_re_lu_48"}, "input_shape": [10, 10, 1024]}, "leaky_re_lu_50": {"class_name": "LeakyReLU", "prev": ["batch_normalization_50"], "config": {"alpha": 0.10000000149011612, "trainable": true, "name": "leaky_re_lu_50"}, "input_shape": [10, 10, 1024]}, "batch_normalization_66": {"class_name": "BatchNormalization", "prev": ["conv2d_68"], "config": {"gamma_initializer": {"class_name": "Ones", "config": {}}, "moving_mean_initializer": {"class_name": "Zeros", "config": {}}, "name": "batch_normalization_66", "epsilon": 0.001, "trainable": true, "center": true, "moving_variance_initializer": {"class_name": "Ones", "config": {}}, "beta_initializer": {"class_name": "Zeros", "config": {}}, "scale": true, "gamma_regularizer": null, "gamma_constraint": null, "beta_constraint": null, "beta_regularizer": null, "momentum": 0.99, "axis": -1}, "input_shape": [20, 20, 128]}, "leaky_re_lu_47": {"class_name": "LeakyReLU", "prev": ["batch_normalization_47"], "config": {"alpha": 0.10000000149011612, "trainable": true, "name": "leaky_re_lu_47"}, "input_shape": [10, 10, 512]}, "conv2d_64": {"class_name": "Conv2D", "prev": ["leaky_re_lu_62"], "config": {"padding": "same", "kernel_initializer": {"class_name": "VarianceScaling", "config": {"distribution": "uniform", "scale": 1.0, "seed": null, "mode": "fan_avg"}}, "name": "conv2d_64", "bias_regularizer": null, "filters": 512, "bias_constraint": null, "activation": "linear", "trainable": true, "data_format": "channels_last", "kernel_constraint": null, "strides": [1, 1], "dilation_rate": [1, 1], "kernel_regularizer": {"class_name": "L1L2", "config": {"l2": 0.0005000000237487257, "l1": 0.0}}, "bias_initializer": {"class_name": "Zeros", "config": {}}, "use_bias": false, "activity_regularizer": null, "kernel_size": [3, 3]}, "input_shape": [20, 20, 256]}, "conv2d_43": {"class_name": "Conv2D", "prev": ["leaky_re_lu_42"], "config": {"padding": "same", "kernel_initializer": {"class_name": "VarianceScaling", "config": {"distribution": "uniform", "scale": 1.0, "seed": null, "mode": "fan_avg"}}, "name": "conv2d_43", "bias_regularizer": null, "filters": 512, "bias_constraint": null, "activation": "linear", "trainable": true, "data_format": "channels_last", "kernel_constraint": null, "strides": [1, 1], "dilation_rate": [1, 1], "kernel_regularizer": {"class_name": "L1L2", "config": {"l2": 0.0005000000237487257, "l1": 0.0}}, "bias_initializer": {"class_name": "Zeros", "config": {}}, "use_bias": false, "activity_regularizer": null, "kernel_size": [3, 3]}, "input_shape": [20, 20, 256]}, "conv2d_16": {"class_name": "Conv2D", "prev": ["leaky_re_lu_15"], "config": {"padding": "same", "kernel_initializer": {"class_name": "VarianceScaling", "config": {"distribution": "uniform", "scale": 1.0, "seed": null, "mode": "fan_avg"}}, "name": "conv2d_16", "bias_regularizer": null, "filters": 256, "bias_constraint": null, "activation": "linear", "trainable": true, "data_format": "channels_last", "kernel_constraint": null, "strides": [1, 1], "dilation_rate": [1, 1], "kernel_regularizer": {"class_name": "L1L2", "config": {"l2": 0.0005000000237487257, "l1": 0.0}}, "bias_initializer": {"class_name": "Zeros", "config": {}}, "use_bias": false, "activity_regularizer": null, "kernel_size": [3, 3]}, "input_shape": [40, 40, 128]}, "leaky_re_lu_51": {"class_name": "LeakyReLU", "prev": ["batch_normalization_51"], "config": {"alpha": 0.10000000149011612, "trainable": true, "name": "leaky_re_lu_51"}, "input_shape": [10, 10, 512]}, "batch_normalization_32": {"class_name": "BatchNormalization", "prev": ["conv2d_32"], "config": {"gamma_initializer": {"class_name": "Ones", "config": {}}, "moving_mean_initializer": {"class_name": "Zeros", "config": {}}, "name": "batch_normalization_32", "epsilon": 0.001, "trainable": true, "center": true, "moving_variance_initializer": {"class_name": "Ones", "config": {}}, "beta_initializer": {"class_name": "Zeros", "config": {}}, "scale": true, "gamma_regularizer": null, "gamma_constraint": null, "beta_constraint": null, "beta_regularizer": null, "momentum": 0.99, "axis": -1}, "input_shape": [20, 20, 256]}, "batch_normalization_33": {"class_name": "BatchNormalization", "prev": ["conv2d_33"], "config": {"gamma_initializer": {"class_name": "Ones", "config": {}}, "moving_mean_initializer": {"class_name": "Zeros", "config": {}}, "name": "batch_normalization_33", "epsilon": 0.001, "trainable": true, "center": true, "moving_variance_initializer": {"class_name": "Ones", "config": {}}, "beta_initializer": {"class_name": "Zeros", "config": {}}, "scale": true, "gamma_regularizer": null, "gamma_constraint": null, "beta_constraint": null, "beta_regularizer": null, "momentum": 0.99, "axis": -1}, "input_shape": [20, 20, 512]}, "batch_normalization_30": {"class_name": "BatchNormalization", "prev": ["conv2d_30"], "config": {"gamma_initializer": {"class_name": "Ones", "config": {}}, "moving_mean_initializer": {"class_name": "Zeros", "config": {}}, "name": "batch_normalization_30", "epsilon": 0.001, "trainable": true, "center": true, "moving_variance_initializer": {"class_name": "Ones", "config": {}}, "beta_initializer": {"class_name": "Zeros", "config": {}}, "scale": true, "gamma_regularizer": null, "gamma_constraint": null, "beta_constraint": null, "beta_regularizer": null, "momentum": 0.99, "axis": -1}, "input_shape": [20, 20, 256]}, "batch_normalization_31": {"class_name": "BatchNormalization", "prev": ["conv2d_31"], "config": {"gamma_initializer": {"class_name": "Ones", "config": {}}, "moving_mean_initializer": {"class_name": "Zeros", "config": {}}, "name": "batch_normalization_31", "epsilon": 0.001, "trainable": true, "center": true, "moving_variance_initializer": {"class_name": "Ones", "config": {}}, "beta_initializer": {"class_name": "Zeros", "config": {}}, "scale": true, "gamma_regularizer": null, "gamma_constraint": null, "beta_constraint": null, "beta_regularizer": null, "momentum": 0.99, "axis": -1}, "input_shape": [20, 20, 512]}, "batch_normalization_36": {"class_name": "BatchNormalization", "prev": ["conv2d_36"], "config": {"gamma_initializer": {"class_name": "Ones", "config": {}}, "moving_mean_initializer": {"class_name": "Zeros", "config": {}}, "name": "batch_normalization_36", "epsilon": 0.001, "trainable": true, "center": true, "moving_variance_initializer": {"class_name": "Ones", "config": {}}, "beta_initializer": {"class_name": "Zeros", "config": {}}, "scale": true, "gamma_regularizer": null, "gamma_constraint": null, "beta_constraint": null, "beta_regularizer": null, "momentum": 0.99, "axis": -1}, "input_shape": [20, 20, 256]}, "batch_normalization_37": {"class_name": "BatchNormalization", "prev": ["conv2d_37"], "config": {"gamma_initializer": {"class_name": "Ones", "config": {}}, "moving_mean_initializer": {"class_name": "Zeros", "config": {}}, "name": "batch_normalization_37", "epsilon": 0.001, "trainable": true, "center": true, "moving_variance_initializer": {"class_name": "Ones", "config": {}}, "beta_initializer": {"class_name": "Zeros", "config": {}}, "scale": true, "gamma_regularizer": null, "gamma_constraint": null, "beta_constraint": null, "beta_regularizer": null, "momentum": 0.99, "axis": -1}, "input_shape": [20, 20, 512]}, "batch_normalization_34": {"class_name": "BatchNormalization", "prev": ["conv2d_34"], "config": {"gamma_initializer": {"class_name": "Ones", "config": {}}, "moving_mean_initializer": {"class_name": "Zeros", "config": {}}, "name": "batch_normalization_34", "epsilon": 0.001, "trainable": true, "center": true, "moving_variance_initializer": {"class_name": "Ones", "config": {}}, "beta_initializer": {"class_name": "Zeros", "config": {}}, "scale": true, "gamma_regularizer": null, "gamma_constraint": null, "beta_constraint": null, "beta_regularizer": null, "momentum": 0.99, "axis": -1}, "input_shape": [20, 20, 256]}, "batch_normalization_35": {"class_name": "BatchNormalization", "prev": ["conv2d_35"], "config": {"gamma_initializer": {"class_name": "Ones", "config": {}}, "moving_mean_initializer": {"class_name": "Zeros", "config": {}}, "name": "batch_normalization_35", "epsilon": 0.001, "trainable": true, "center": true, "moving_variance_initializer": {"class_name": "Ones", "config": {}}, "beta_initializer": {"class_name": "Zeros", "config": {}}, "scale": true, "gamma_regularizer": null, "gamma_constraint": null, "beta_constraint": null, "beta_regularizer": null, "momentum": 0.99, "axis": -1}, "input_shape": [20, 20, 512]}, "batch_normalization_38": {"class_name": "BatchNormalization", "prev": ["conv2d_38"], "config": {"gamma_initializer": {"class_name": "Ones", "config": {}}, "moving_mean_initializer": {"class_name": "Zeros", "config": {}}, "name": "batch_normalization_38", "epsilon": 0.001, "trainable": true, "center": true, "moving_variance_initializer": {"class_name": "Ones", "config": {}}, "beta_initializer": {"class_name": "Zeros", "config": {}}, "scale": true, "gamma_regularizer": null, "gamma_constraint": null, "beta_constraint": null, "beta_regularizer": null, "momentum": 0.99, "axis": -1}, "input_shape": [20, 20, 256]}, "batch_normalization_39": {"class_name": "BatchNormalization", "prev": ["conv2d_39"], "config": {"gamma_initializer": {"class_name": "Ones", "config": {}}, "moving_mean_initializer": {"class_name": "Zeros", "config": {}}, "name": "batch_normalization_39", "epsilon": 0.001, "trainable": true, "center": true, "moving_variance_initializer": {"class_name": "Ones", "config": {}}, "beta_initializer": {"class_name": "Zeros", "config": {}}, "scale": true, "gamma_regularizer": null, "gamma_constraint": null, "beta_constraint": null, "beta_regularizer": null, "momentum": 0.99, "axis": -1}, "input_shape": [20, 20, 512]}, "conv2d_48": {"class_name": "Conv2D", "prev": ["leaky_re_lu_47"], "config": {"padding": "same", "kernel_initializer": {"class_name": "VarianceScaling", "config": {"distribution": "uniform", "scale": 1.0, "seed": null, "mode": "fan_avg"}}, "name": "conv2d_48", "bias_regularizer": null, "filters": 1024, "bias_constraint": null, "activation": "linear", "trainable": true, "data_format": "channels_last", "kernel_constraint": null, "strides": [1, 1], "dilation_rate": [1, 1], "kernel_regularizer": {"class_name": "L1L2", "config": {"l2": 0.0005000000237487257, "l1": 0.0}}, "bias_initializer": {"class_name": "Zeros", "config": {}}, "use_bias": false, "activity_regularizer": null, "kernel_size": [3, 3]}, "input_shape": [10, 10, 512]}, "conv2d_40": {"class_name": "Conv2D", "prev": ["add_17"], "config": {"padding": "same", "kernel_initializer": {"class_name": "VarianceScaling", "config": {"distribution": "uniform", "scale": 1.0, "seed": null, "mode": "fan_avg"}}, "name": "conv2d_40", "bias_regularizer": null, "filters": 256, "bias_constraint": null, "activation": "linear", "trainable": true, "data_format": "channels_last", "kernel_constraint": null, "strides": [1, 1], "dilation_rate": [1, 1], "kernel_regularizer": {"class_name": "L1L2", "config": {"l2": 0.0005000000237487257, "l1": 0.0}}, "bias_initializer": {"class_name": "Zeros", "config": {}}, "use_bias": false, "activity_regularizer": null, "kernel_size": [1, 1]}, "input_shape": [20, 20, 512]}, "conv2d_60": {"class_name": "Conv2D", "prev": ["leaky_re_lu_57"], "config": {"padding": "same", "kernel_initializer": {"class_name": "VarianceScaling", "config": {"distribution": "uniform", "scale": 1.0, "seed": null, "mode": "fan_avg"}}, "name": "conv2d_60", "bias_regularizer": null, "filters": 256, "bias_constraint": null, "activation": "linear", "trainable": true, "data_format": "channels_last", "kernel_constraint": null, "strides": [1, 1], "dilation_rate": [1, 1], "kernel_regularizer": {"class_name": "L1L2", "config": {"l2": 0.0005000000237487257, "l1": 0.0}}, "bias_initializer": {"class_name": "Zeros", "config": {}}, "use_bias": false, "activity_regularizer": null, "kernel_size": [1, 1]}, "input_shape": [10, 10, 512]}, "leaky_re_lu_71": {"class_name": "LeakyReLU", "prev": ["batch_normalization_71"], "config": {"alpha": 0.10000000149011612, "trainable": true, "name": "leaky_re_lu_71"}, "input_shape": [40, 40, 128]}, "leaky_re_lu_72": {"class_name": "LeakyReLU", "prev": ["batch_normalization_72"], "config": {"alpha": 0.10000000149011612, "trainable": true, "name": "leaky_re_lu_72"}, "input_shape": [40, 40, 256]}, "conv2d_49": {"class_name": "Conv2D", "prev": ["add_21"], "config": {"padding": "same", "kernel_initializer": {"class_name": "VarianceScaling", "config": {"distribution": "uniform", "scale": 1.0, "seed": null, "mode": "fan_avg"}}, "name": "conv2d_49", "bias_regularizer": null, "filters": 512, "bias_constraint": null, "activation": "linear", "trainable": true, "data_format": "channels_last", "kernel_constraint": null, "strides": [1, 1], "dilation_rate": [1, 1], "kernel_regularizer": {"class_name": "L1L2", "config": {"l2": 0.0005000000237487257, "l1": 0.0}}, "bias_initializer": {"class_name": "Zeros", "config": {}}, "use_bias": false, "activity_regularizer": null, "kernel_size": [1, 1]}, "input_shape": [10, 10, 1024]}, "conv2d_61": {"class_name": "Conv2D", "prev": ["concatenate_1"], "config": {"padding": "same", "kernel_initializer": {"class_name": "VarianceScaling", "config": {"distribution": "uniform", "scale": 1.0, "seed": null, "mode": "fan_avg"}}, "name": "conv2d_61", "bias_regularizer": null, "filters": 256, "bias_constraint": null, "activation": "linear", "trainable": true, "data_format": "channels_last", "kernel_constraint": null, "strides": [1, 1], "dilation_rate": [1, 1], "kernel_regularizer": {"class_name": "L1L2", "config": {"l2": 0.0005000000237487257, "l1": 0.0}}, "bias_initializer": {"class_name": "Zeros", "config": {}}, "use_bias": false, "activity_regularizer": null, "kernel_size": [1, 1]}, "input_shape": [20, 20, 768]}, "conv2d_41": {"class_name": "Conv2D", "prev": ["leaky_re_lu_40"], "config": {"padding": "same", "kernel_initializer": {"class_name": "VarianceScaling", "config": {"distribution": "uniform", "scale": 1.0, "seed": null, "mode": "fan_avg"}}, "name": "conv2d_41", "bias_regularizer": null, "filters": 512, "bias_constraint": null, "activation": "linear", "trainable": true, "data_format": "channels_last", "kernel_constraint": null, "strides": [1, 1], "dilation_rate": [1, 1], "kernel_regularizer": {"class_name": "L1L2", "config": {"l2": 0.0005000000237487257, "l1": 0.0}}, "bias_initializer": {"class_name": "Zeros", "config": {}}, "use_bias": false, "activity_regularizer": null, "kernel_size": [3, 3]}, "input_shape": [20, 20, 256]}, "batch_normalization_49": {"class_name": "BatchNormalization", "prev": ["conv2d_49"], "config": {"gamma_initializer": {"class_name": "Ones", "config": {}}, "moving_mean_initializer": {"class_name": "Zeros", "config": {}}, "name": "batch_normalization_49", "epsilon": 0.001, "trainable": true, "center": true, "moving_variance_initializer": {"class_name": "Ones", "config": {}}, "beta_initializer": {"class_name": "Zeros", "config": {}}, "scale": true, "gamma_regularizer": null, "gamma_constraint": null, "beta_constraint": null, "beta_regularizer": null, "momentum": 0.99, "axis": -1}, "input_shape": [10, 10, 512]}, "batch_normalization_14": {"class_name": "BatchNormalization", "prev": ["conv2d_14"], "config": {"gamma_initializer": {"class_name": "Ones", "config": {}}, "moving_mean_initializer": {"class_name": "Zeros", "config": {}}, "name": "batch_normalization_14", "epsilon": 0.001, "trainable": true, "center": true, "moving_variance_initializer": {"class_name": "Ones", "config": {}}, "beta_initializer": {"class_name": "Zeros", "config": {}}, "scale": true, "gamma_regularizer": null, "gamma_constraint": null, "beta_constraint": null, "beta_regularizer": null, "momentum": 0.99, "axis": -1}, "input_shape": [40, 40, 256]}, "conv2d_39": {"class_name": "Conv2D", "prev": ["leaky_re_lu_38"], "config": {"padding": "same", "kernel_initializer": {"class_name": "VarianceScaling", "config": {"distribution": "uniform", "scale": 1.0, "seed": null, "mode": "fan_avg"}}, "name": "conv2d_39", "bias_regularizer": null, "filters": 512, "bias_constraint": null, "activation": "linear", "trainable": true, "data_format": "channels_last", "kernel_constraint": null, "strides": [1, 1], "dilation_rate": [1, 1], "kernel_regularizer": {"class_name": "L1L2", "config": {"l2": 0.0005000000237487257, "l1": 0.0}}, "bias_initializer": {"class_name": "Zeros", "config": {}}, "use_bias": false, "activity_regularizer": null, "kernel_size": [3, 3]}, "input_shape": [20, 20, 256]}, "conv2d_38": {"class_name": "Conv2D", "prev": ["add_16"], "config": {"padding": "same", "kernel_initializer": {"class_name": "VarianceScaling", "config": {"distribution": "uniform", "scale": 1.0, "seed": null, "mode": "fan_avg"}}, "name": "conv2d_38", "bias_regularizer": null, "filters": 256, "bias_constraint": null, "activation": "linear", "trainable": true, "data_format": "channels_last", "kernel_constraint": null, "strides": [1, 1], "dilation_rate": [1, 1], "kernel_regularizer": {"class_name": "L1L2", "config": {"l2": 0.0005000000237487257, "l1": 0.0}}, "bias_initializer": {"class_name": "Zeros", "config": {}}, "use_bias": false, "activity_regularizer": null, "kernel_size": [1, 1]}, "input_shape": [20, 20, 512]}, "conv2d_70": {"class_name": "Conv2D", "prev": ["leaky_re_lu_67"], "config": {"padding": "same", "kernel_initializer": {"class_name": "VarianceScaling", "config": {"distribution": "uniform", "scale": 1.0, "seed": null, "mode": "fan_avg"}}, "name": "conv2d_70", "bias_regularizer": null, "filters": 256, "bias_constraint": null, "activation": "linear", "trainable": true, "data_format": "channels_last", "kernel_constraint": null, "strides": [1, 1], "dilation_rate": [1, 1], "kernel_regularizer": {"class_name": "L1L2", "config": {"l2": 0.0005000000237487257, "l1": 0.0}}, "bias_initializer": {"class_name": "Zeros", "config": {}}, "use_bias": false, "activity_regularizer": null, "kernel_size": [3, 3]}, "input_shape": [40, 40, 128]}, "batch_normalization_15": {"class_name": "BatchNormalization", "prev": ["conv2d_15"], "config": {"gamma_initializer": {"class_name": "Ones", "config": {}}, "moving_mean_initializer": {"class_name": "Zeros", "config": {}}, "name": "batch_normalization_15", "epsilon": 0.001, "trainable": true, "center": true, "moving_variance_initializer": {"class_name": "Ones", "config": {}}, "beta_initializer": {"class_name": "Zeros", "config": {}}, "scale": true, "gamma_regularizer": null, "gamma_constraint": null, "beta_constraint": null, "beta_regularizer": null, "momentum": 0.99, "axis": -1}, "input_shape": [40, 40, 128]}, "conv2d_33": {"class_name": "Conv2D", "prev": ["leaky_re_lu_32"], "config": {"padding": "same", "kernel_initializer": {"class_name": "VarianceScaling", "config": {"distribution": "uniform", "scale": 1.0, "seed": null, "mode": "fan_avg"}}, "name": "conv2d_33", "bias_regularizer": null, "filters": 512, "bias_constraint": null, "activation": "linear", "trainable": true, "data_format": "channels_last", "kernel_constraint": null, "strides": [1, 1], "dilation_rate": [1, 1], "kernel_regularizer": {"class_name": "L1L2", "config": {"l2": 0.0005000000237487257, "l1": 0.0}}, "bias_initializer": {"class_name": "Zeros", "config": {}}, "use_bias": false, "activity_regularizer": null, "kernel_size": [3, 3]}, "input_shape": [20, 20, 256]}, "conv2d_32": {"class_name": "Conv2D", "prev": ["add_13"], "config": {"padding": "same", "kernel_initializer": {"class_name": "VarianceScaling", "config": {"distribution": "uniform", "scale": 1.0, "seed": null, "mode": "fan_avg"}}, "name": "conv2d_32", "bias_regularizer": null, "filters": 256, "bias_constraint": null, "activation": "linear", "trainable": true, "data_format": "channels_last", "kernel_constraint": null, "strides": [1, 1], "dilation_rate": [1, 1], "kernel_regularizer": {"class_name": "L1L2", "config": {"l2": 0.0005000000237487257, "l1": 0.0}}, "bias_initializer": {"class_name": "Zeros", "config": {}}, "use_bias": false, "activity_regularizer": null, "kernel_size": [1, 1]}, "input_shape": [20, 20, 512]}, "conv2d_31": {"class_name": "Conv2D", "prev": ["leaky_re_lu_30"], "config": {"padding": "same", "kernel_initializer": {"class_name": "VarianceScaling", "config": {"distribution": "uniform", "scale": 1.0, "seed": null, "mode": "fan_avg"}}, "name": "conv2d_31", "bias_regularizer": null, "filters": 512, "bias_constraint": null, "activation": "linear", "trainable": true, "data_format": "channels_last", "kernel_constraint": null, "strides": [1, 1], "dilation_rate": [1, 1], "kernel_regularizer": {"class_name": "L1L2", "config": {"l2": 0.0005000000237487257, "l1": 0.0}}, "bias_initializer": {"class_name": "Zeros", "config": {}}, "use_bias": false, "activity_regularizer": null, "kernel_size": [3, 3]}, "input_shape": [20, 20, 256]}, "conv2d_30": {"class_name": "Conv2D", "prev": ["add_12"], "config": {"padding": "same", "kernel_initializer": {"class_name": "VarianceScaling", "config": {"distribution": "uniform", "scale": 1.0, "seed": null, "mode": "fan_avg"}}, "name": "conv2d_30", "bias_regularizer": null, "filters": 256, "bias_constraint": null, "activation": "linear", "trainable": true, "data_format": "channels_last", "kernel_constraint": null, "strides": [1, 1], "dilation_rate": [1, 1], "kernel_regularizer": {"class_name": "L1L2", "config": {"l2": 0.0005000000237487257, "l1": 0.0}}, "bias_initializer": {"class_name": "Zeros", "config": {}}, "use_bias": false, "activity_regularizer": null, "kernel_size": [1, 1]}, "input_shape": [20, 20, 512]}, "conv2d_37": {"class_name": "Conv2D", "prev": ["leaky_re_lu_36"], "config": {"padding": "same", "kernel_initializer": {"class_name": "VarianceScaling", "config": {"distribution": "uniform", "scale": 1.0, "seed": null, "mode": "fan_avg"}}, "name": "conv2d_37", "bias_regularizer": null, "filters": 512, "bias_constraint": null, "activation": "linear", "trainable": true, "data_format": "channels_last", "kernel_constraint": null, "strides": [1, 1], "dilation_rate": [1, 1], "kernel_regularizer": {"class_name": "L1L2", "config": {"l2": 0.0005000000237487257, "l1": 0.0}}, "bias_initializer": {"class_name": "Zeros", "config": {}}, "use_bias": false, "activity_regularizer": null, "kernel_size": [3, 3]}, "input_shape": [20, 20, 256]}, "batch_normalization_16": {"class_name": "BatchNormalization", "prev": ["conv2d_16"], "config": {"gamma_initializer": {"class_name": "Ones", "config": {}}, "moving_mean_initializer": {"class_name": "Zeros", "config": {}}, "name": "batch_normalization_16", "epsilon": 0.001, "trainable": true, "center": true, "moving_variance_initializer": {"class_name": "Ones", "config": {}}, "beta_initializer": {"class_name": "Zeros", "config": {}}, "scale": true, "gamma_regularizer": null, "gamma_constraint": null, "beta_constraint": null, "beta_regularizer": null, "momentum": 0.99, "axis": -1}, "input_shape": [40, 40, 256]}, "conv2d_35": {"class_name": "Conv2D", "prev": ["leaky_re_lu_34"], "config": {"padding": "same", "kernel_initializer": {"class_name": "VarianceScaling", "config": {"distribution": "uniform", "scale": 1.0, "seed": null, "mode": "fan_avg"}}, "name": "conv2d_35", "bias_regularizer": null, "filters": 512, "bias_constraint": null, "activation": "linear", "trainable": true, "data_format": "channels_last", "kernel_constraint": null, "strides": [1, 1], "dilation_rate": [1, 1], "kernel_regularizer": {"class_name": "L1L2", "config": {"l2": 0.0005000000237487257, "l1": 0.0}}, "bias_initializer": {"class_name": "Zeros", "config": {}}, "use_bias": false, "activity_regularizer": null, "kernel_size": [3, 3]}, "input_shape": [20, 20, 256]}, "conv2d_34": {"class_name": "Conv2D", "prev": ["add_14"], "config": {"padding": "same", "kernel_initializer": {"class_name": "VarianceScaling", "config": {"distribution": "uniform", "scale": 1.0, "seed": null, "mode": "fan_avg"}}, "name": "conv2d_34", "bias_regularizer": null, "filters": 256, "bias_constraint": null, "activation": "linear", "trainable": true, "data_format": "channels_last", "kernel_constraint": null, "strides": [1, 1], "dilation_rate": [1, 1], "kernel_regularizer": {"class_name": "L1L2", "config": {"l2": 0.0005000000237487257, "l1": 0.0}}, "bias_initializer": {"class_name": "Zeros", "config": {}}, "use_bias": false, "activity_regularizer": null, "kernel_size": [1, 1]}, "input_shape": [20, 20, 512]}, "batch_normalization_21": {"class_name": "BatchNormalization", "prev": ["conv2d_21"], "config": {"gamma_initializer": {"class_name": "Ones", "config": {}}, "moving_mean_initializer": {"class_name": "Zeros", "config": {}}, "name": "batch_normalization_21", "epsilon": 0.001, "trainable": true, "center": true, "moving_variance_initializer": {"class_name": "Ones", "config": {}}, "beta_initializer": {"class_name": "Zeros", "config": {}}, "scale": true, "gamma_regularizer": null, "gamma_constraint": null, "beta_constraint": null, "beta_regularizer": null, "momentum": 0.99, "axis": -1}, "input_shape": [40, 40, 128]}, "batch_normalization_20": {"class_name": "BatchNormalization", "prev": ["conv2d_20"], "config": {"gamma_initializer": {"class_name": "Ones", "config": {}}, "moving_mean_initializer": {"class_name": "Zeros", "config": {}}, "name": "batch_normalization_20", "epsilon": 0.001, "trainable": true, "center": true, "moving_variance_initializer": {"class_name": "Ones", "config": {}}, "beta_initializer": {"class_name": "Zeros", "config": {}}, "scale": true, "gamma_regularizer": null, "gamma_constraint": null, "beta_constraint": null, "beta_regularizer": null, "momentum": 0.99, "axis": -1}, "input_shape": [40, 40, 256]}, "batch_normalization_23": {"class_name": "BatchNormalization", "prev": ["conv2d_23"], "config": {"gamma_initializer": {"class_name": "Ones", "config": {}}, "moving_mean_initializer": {"class_name": "Zeros", "config": {}}, "name": "batch_normalization_23", "epsilon": 0.001, "trainable": true, "center": true, "moving_variance_initializer": {"class_name": "Ones", "config": {}}, "beta_initializer": {"class_name": "Zeros", "config": {}}, "scale": true, "gamma_regularizer": null, "gamma_constraint": null, "beta_constraint": null, "beta_regularizer": null, "momentum": 0.99, "axis": -1}, "input_shape": [40, 40, 128]}, "batch_normalization_17": {"class_name": "BatchNormalization", "prev": ["conv2d_17"], "config": {"gamma_initializer": {"class_name": "Ones", "config": {}}, "moving_mean_initializer": {"class_name": "Zeros", "config": {}}, "name": "batch_normalization_17", "epsilon": 0.001, "trainable": true, "center": true, "moving_variance_initializer": {"class_name": "Ones", "config": {}}, "beta_initializer": {"class_name": "Zeros", "config": {}}, "scale": true, "gamma_regularizer": null, "gamma_constraint": null, "beta_constraint": null, "beta_regularizer": null, "momentum": 0.99, "axis": -1}, "input_shape": [40, 40, 128]}, "batch_normalization_25": {"class_name": "BatchNormalization", "prev": ["conv2d_25"], "config": {"gamma_initializer": {"class_name": "Ones", "config": {}}, "moving_mean_initializer": {"class_name": "Zeros", "config": {}}, "name": "batch_normalization_25", "epsilon": 0.001, "trainable": true, "center": true, "moving_variance_initializer": {"class_name": "Ones", "config": {}}, "beta_initializer": {"class_name": "Zeros", "config": {}}, "scale": true, "gamma_regularizer": null, "gamma_constraint": null, "beta_constraint": null, "beta_regularizer": null, "momentum": 0.99, "axis": -1}, "input_shape": [40, 40, 128]}, "batch_normalization_24": {"class_name": "BatchNormalization", "prev": ["conv2d_24"], "config": {"gamma_initializer": {"class_name": "Ones", "config": {}}, "moving_mean_initializer": {"class_name": "Zeros", "config": {}}, "name": "batch_normalization_24", "epsilon": 0.001, "trainable": true, "center": true, "moving_variance_initializer": {"class_name": "Ones", "config": {}}, "beta_initializer": {"class_name": "Zeros", "config": {}}, "scale": true, "gamma_regularizer": null, "gamma_constraint": null, "beta_constraint": null, "beta_regularizer": null, "momentum": 0.99, "axis": -1}, "input_shape": [40, 40, 256]}, "batch_normalization_27": {"class_name": "BatchNormalization", "prev": ["conv2d_27"], "config": {"gamma_initializer": {"class_name": "Ones", "config": {}}, "moving_mean_initializer": {"class_name": "Zeros", "config": {}}, "name": "batch_normalization_27", "epsilon": 0.001, "trainable": true, "center": true, "moving_variance_initializer": {"class_name": "Ones", "config": {}}, "beta_initializer": {"class_name": "Zeros", "config": {}}, "scale": true, "gamma_regularizer": null, "gamma_constraint": null, "beta_constraint": null, "beta_regularizer": null, "momentum": 0.99, "axis": -1}, "input_shape": [20, 20, 512]}, "batch_normalization_26": {"class_name": "BatchNormalization", "prev": ["conv2d_26"], "config": {"gamma_initializer": {"class_name": "Ones", "config": {}}, "moving_mean_initializer": {"class_name": "Zeros", "config": {}}, "name": "batch_normalization_26", "epsilon": 0.001, "trainable": true, "center": true, "moving_variance_initializer": {"class_name": "Ones", "config": {}}, "beta_initializer": {"class_name": "Zeros", "config": {}}, "scale": true, "gamma_regularizer": null, "gamma_constraint": null, "beta_constraint": null, "beta_regularizer": null, "momentum": 0.99, "axis": -1}, "input_shape": [40, 40, 256]}, "batch_normalization_29": {"class_name": "BatchNormalization", "prev": ["conv2d_29"], "config": {"gamma_initializer": {"class_name": "Ones", "config": {}}, "moving_mean_initializer": {"class_name": "Zeros", "config": {}}, "name": "batch_normalization_29", "epsilon": 0.001, "trainable": true, "center": true, "moving_variance_initializer": {"class_name": "Ones", "config": {}}, "beta_initializer": {"class_name": "Zeros", "config": {}}, "scale": true, "gamma_regularizer": null, "gamma_constraint": null, "beta_constraint": null, "beta_regularizer": null, "momentum": 0.99, "axis": -1}, "input_shape": [20, 20, 512]}, "leaky_re_lu_16": {"class_name": "LeakyReLU", "prev": ["batch_normalization_16"], "config": {"alpha": 0.10000000149011612, "trainable": true, "name": "leaky_re_lu_16"}, "input_shape": [40, 40, 256]}, "conv2d_46": {"class_name": "Conv2D", "prev": ["leaky_re_lu_45"], "config": {"padding": "same", "kernel_initializer": {"class_name": "VarianceScaling", "config": {"distribution": "uniform", "scale": 1.0, "seed": null, "mode": "fan_avg"}}, "name": "conv2d_46", "bias_regularizer": null, "filters": 1024, "bias_constraint": null, "activation": "linear", "trainable": true, "data_format": "channels_last", "kernel_constraint": null, "strides": [1, 1], "dilation_rate": [1, 1], "kernel_regularizer": {"class_name": "L1L2", "config": {"l2": 0.0005000000237487257, "l1": 0.0}}, "bias_initializer": {"class_name": "Zeros", "config": {}}, "use_bias": false, "activity_regularizer": null, "kernel_size": [3, 3]}, "input_shape": [10, 10, 512]}, "conv2d_52": {"class_name": "Conv2D", "prev": ["leaky_re_lu_51"], "config": {"padding": "same", "kernel_initializer": {"class_name": "VarianceScaling", "config": {"distribution": "uniform", "scale": 1.0, "seed": null, "mode": "fan_avg"}}, "name": "conv2d_52", "bias_regularizer": null, "filters": 1024, "bias_constraint": null, "activation": "linear", "trainable": true, "data_format": "channels_last", "kernel_constraint": null, "strides": [1, 1], "dilation_rate": [1, 1], "kernel_regularizer": {"class_name": "L1L2", "config": {"l2": 0.0005000000237487257, "l1": 0.0}}, "bias_initializer": {"class_name": "Zeros", "config": {}}, "use_bias": false, "activity_regularizer": null, "kernel_size": [3, 3]}, "input_shape": [10, 10, 512]}, "conv2d_55": {"class_name": "Conv2D", "prev": ["leaky_re_lu_54"], "config": {"padding": "same", "kernel_initializer": {"class_name": "VarianceScaling", "config": {"distribution": "uniform", "scale": 1.0, "seed": null, "mode": "fan_avg"}}, "name": "conv2d_55", "bias_regularizer": null, "filters": 512, "bias_constraint": null, "activation": "linear", "trainable": true, "data_format": "channels_last", "kernel_constraint": null, "strides": [1, 1], "dilation_rate": [1, 1], "kernel_regularizer": {"class_name": "L1L2", "config": {"l2": 0.0005000000237487257, "l1": 0.0}}, "bias_initializer": {"class_name": "Zeros", "config": {}}, "use_bias": false, "activity_regularizer": null, "kernel_size": [1, 1]}, "input_shape": [10, 10, 1024]}, "conv2d_54": {"class_name": "Conv2D", "prev": ["leaky_re_lu_53"], "config": {"padding": "same", "kernel_initializer": {"class_name": "VarianceScaling", "config": {"distribution": "uniform", "scale": 1.0, "seed": null, "mode": "fan_avg"}}, "name": "conv2d_54", "bias_regularizer": null, "filters": 1024, "bias_constraint": null, "activation": "linear", "trainable": true, "data_format": "channels_last", "kernel_constraint": null, "strides": [1, 1], "dilation_rate": [1, 1], "kernel_regularizer": {"class_name": "L1L2", "config": {"l2": 0.0005000000237487257, "l1": 0.0}}, "bias_initializer": {"class_name": "Zeros", "config": {}}, "use_bias": false, "activity_regularizer": null, "kernel_size": [3, 3]}, "input_shape": [10, 10, 512]}, "conv2d_57": {"class_name": "Conv2D", "prev": ["leaky_re_lu_56"], "config": {"padding": "same", "kernel_initializer": {"class_name": "VarianceScaling", "config": {"distribution": "uniform", "scale": 1.0, "seed": null, "mode": "fan_avg"}}, "name": "conv2d_57", "bias_regularizer": null, "filters": 512, "bias_constraint": null, "activation": "linear", "trainable": true, "data_format": "channels_last", "kernel_constraint": null, "strides": [1, 1], "dilation_rate": [1, 1], "kernel_regularizer": {"class_name": "L1L2", "config": {"l2": 0.0005000000237487257, "l1": 0.0}}, "bias_initializer": {"class_name": "Zeros", "config": {}}, "use_bias": false, "activity_regularizer": null, "kernel_size": [1, 1]}, "input_shape": [10, 10, 1024]}, "leaky_re_lu_17": {"class_name": "LeakyReLU", "prev": ["batch_normalization_17"], "config": {"alpha": 0.10000000149011612, "trainable": true, "name": "leaky_re_lu_17"}, "input_shape": [40, 40, 128]}, "conv2d_56": {"class_name": "Conv2D", "prev": ["leaky_re_lu_55"], "config": {"padding": "same", "kernel_initializer": {"class_name": "VarianceScaling", "config": {"distribution": "uniform", "scale": 1.0, "seed": null, "mode": "fan_avg"}}, "name": "conv2d_56", "bias_regularizer": null, "filters": 1024, "bias_constraint": null, "activation": "linear", "trainable": true, "data_format": "channels_last", "kernel_constraint": null, "strides": [1, 1], "dilation_rate": [1, 1], "kernel_regularizer": {"class_name": "L1L2", "config": {"l2": 0.0005000000237487257, "l1": 0.0}}, "bias_initializer": {"class_name": "Zeros", "config": {}}, "use_bias": false, "activity_regularizer": null, "kernel_size": [3, 3]}, "input_shape": [10, 10, 512]}, "leaky_re_lu_14": {"class_name": "LeakyReLU", "prev": ["batch_normalization_14"], "config": {"alpha": 0.10000000149011612, "trainable": true, "name": "leaky_re_lu_14"}, "input_shape": [40, 40, 256]}, "leaky_re_lu_15": {"class_name": "LeakyReLU", "prev": ["batch_normalization_15"], "config": {"alpha": 0.10000000149011612, "trainable": true, "name": "leaky_re_lu_15"}, "input_shape": [40, 40, 128]}, "conv2d_50": {"class_name": "Conv2D", "prev": ["leaky_re_lu_49"], "config": {"padding": "same", "kernel_initializer": {"class_name": "VarianceScaling", "config": {"distribution": "uniform", "scale": 1.0, "seed": null, "mode": "fan_avg"}}, "name": "conv2d_50", "bias_regularizer": null, "filters": 1024, "bias_constraint": null, "activation": "linear", "trainable": true, "data_format": "channels_last", "kernel_constraint": null, "strides": [1, 1], "dilation_rate": [1, 1], "kernel_regularizer": {"class_name": "L1L2", "config": {"l2": 0.0005000000237487257, "l1": 0.0}}, "bias_initializer": {"class_name": "Zeros", "config": {}}, "use_bias": false, "activity_regularizer": null, "kernel_size": [3, 3]}, "input_shape": [10, 10, 512]}, "conv2d_63": {"class_name": "Conv2D", "prev": ["leaky_re_lu_61"], "config": {"padding": "same", "kernel_initializer": {"class_name": "VarianceScaling", "config": {"distribution": "uniform", "scale": 1.0, "seed": null, "mode": "fan_avg"}}, "name": "conv2d_63", "bias_regularizer": null, "filters": 256, "bias_constraint": null, "activation": "linear", "trainable": true, "data_format": "channels_last", "kernel_constraint": null, "strides": [1, 1], "dilation_rate": [1, 1], "kernel_regularizer": {"class_name": "L1L2", "config": {"l2": 0.0005000000237487257, "l1": 0.0}}, "bias_initializer": {"class_name": "Zeros", "config": {}}, "use_bias": false, "activity_regularizer": null, "kernel_size": [1, 1]}, "input_shape": [20, 20, 512]}, "leaky_re_lu_56": {"class_name": "LeakyReLU", "prev": ["batch_normalization_56"], "config": {"alpha": 0.10000000149011612, "trainable": true, "name": "leaky_re_lu_56"}, "input_shape": [10, 10, 1024]}, "conv2d_47": {"class_name": "Conv2D", "prev": ["add_20"], "config": {"padding": "same", "kernel_initializer": {"class_name": "VarianceScaling", "config": {"distribution": "uniform", "scale": 1.0, "seed": null, "mode": "fan_avg"}}, "name": "conv2d_47", "bias_regularizer": null, "filters": 512, "bias_constraint": null, "activation": "linear", "trainable": true, "data_format": "channels_last", "kernel_constraint": null, "strides": [1, 1], "dilation_rate": [1, 1], "kernel_regularizer": {"class_name": "L1L2", "config": {"l2": 0.0005000000237487257, "l1": 0.0}}, "bias_initializer": {"class_name": "Zeros", "config": {}}, "use_bias": false, "activity_regularizer": null, "kernel_size": [1, 1]}, "input_shape": [10, 10, 1024]}, "leaky_re_lu_54": {"class_name": "LeakyReLU", "prev": ["batch_normalization_54"], "config": {"alpha": 0.10000000149011612, "trainable": true, "name": "leaky_re_lu_54"}, "input_shape": [10, 10, 1024]}, "conv2d_36": {"class_name": "Conv2D", "prev": ["add_15"], "config": {"padding": "same", "kernel_initializer": {"class_name": "VarianceScaling", "config": {"distribution": "uniform", "scale": 1.0, "seed": null, "mode": "fan_avg"}}, "name": "conv2d_36", "bias_regularizer": null, "filters": 256, "bias_constraint": null, "activation": "linear", "trainable": true, "data_format": "channels_last", "kernel_constraint": null, "strides": [1, 1], "dilation_rate": [1, 1], "kernel_regularizer": {"class_name": "L1L2", "config": {"l2": 0.0005000000237487257, "l1": 0.0}}, "bias_initializer": {"class_name": "Zeros", "config": {}}, "use_bias": false, "activity_regularizer": null, "kernel_size": [1, 1]}, "input_shape": [20, 20, 512]}, "leaky_re_lu_55": {"class_name": "LeakyReLU", "prev": ["batch_normalization_55"], "config": {"alpha": 0.10000000149011612, "trainable": true, "name": "leaky_re_lu_55"}, "input_shape": [10, 10, 512]}, "conv2d_28": {"class_name": "Conv2D", "prev": ["leaky_re_lu_27"], "config": {"padding": "same", "kernel_initializer": {"class_name": "VarianceScaling", "config": {"distribution": "uniform", "scale": 1.0, "seed": null, "mode": "fan_avg"}}, "name": "conv2d_28", "bias_regularizer": null, "filters": 256, "bias_constraint": null, "activation": "linear", "trainable": true, "data_format": "channels_last", "kernel_constraint": null, "strides": [1, 1], "dilation_rate": [1, 1], "kernel_regularizer": {"class_name": "L1L2", "config": {"l2": 0.0005000000237487257, "l1": 0.0}}, "bias_initializer": {"class_name": "Zeros", "config": {}}, "use_bias": false, "activity_regularizer": null, "kernel_size": [1, 1]}, "input_shape": [20, 20, 512]}, "conv2d_29": {"class_name": "Conv2D", "prev": ["leaky_re_lu_28"], "config": {"padding": "same", "kernel_initializer": {"class_name": "VarianceScaling", "config": {"distribution": "uniform", "scale": 1.0, "seed": null, "mode": "fan_avg"}}, "name": "conv2d_29", "bias_regularizer": null, "filters": 512, "bias_constraint": null, "activation": "linear", "trainable": true, "data_format": "channels_last", "kernel_constraint": null, "strides": [1, 1], "dilation_rate": [1, 1], "kernel_regularizer": {"class_name": "L1L2", "config": {"l2": 0.0005000000237487257, "l1": 0.0}}, "bias_initializer": {"class_name": "Zeros", "config": {}}, "use_bias": false, "activity_regularizer": null, "kernel_size": [3, 3]}, "input_shape": [20, 20, 256]}, "add_22": {"class_name": "Add", "prev": ["add_21", "leaky_re_lu_50"], "config": {"trainable": true, "name": "add_22"}, "input_shape": [[null, 10, 10, 1024]]}, "add_23": {"class_name": "Add", "prev": ["add_22", "leaky_re_lu_52"], "config": {"trainable": true, "name": "add_23"}, "input_shape": [[null, 10, 10, 1024]]}, "conv2d_24": {"class_name": "Conv2D", "prev": ["leaky_re_lu_23"], "config": {"padding": "same", "kernel_initializer": {"class_name": "VarianceScaling", "config": {"distribution": "uniform", "scale": 1.0, "seed": null, "mode": "fan_avg"}}, "name": "conv2d_24", "bias_regularizer": null, "filters": 256, "bias_constraint": null, "activation": "linear", "trainable": true, "data_format": "channels_last", "kernel_constraint": null, "strides": [1, 1], "dilation_rate": [1, 1], "kernel_regularizer": {"class_name": "L1L2", "config": {"l2": 0.0005000000237487257, "l1": 0.0}}, "bias_initializer": {"class_name": "Zeros", "config": {}}, "use_bias": false, "activity_regularizer": null, "kernel_size": [3, 3]}, "input_shape": [40, 40, 128]}, "conv2d_25": {"class_name": "Conv2D", "prev": ["add_10"], "config": {"padding": "same", "kernel_initializer": {"class_name": "VarianceScaling", "config": {"distribution": "uniform", "scale": 1.0, "seed": null, "mode": "fan_avg"}}, "name": "conv2d_25", "bias_regularizer": null, "filters": 128, "bias_constraint": null, "activation": "linear", "trainable": true, "data_format": "channels_last", "kernel_constraint": null, "strides": [1, 1], "dilation_rate": [1, 1], "kernel_regularizer": {"class_name": "L1L2", "config": {"l2": 0.0005000000237487257, "l1": 0.0}}, "bias_initializer": {"class_name": "Zeros", "config": {}}, "use_bias": false, "activity_regularizer": null, "kernel_size": [1, 1]}, "input_shape": [40, 40, 256]}, "conv2d_26": {"class_name": "Conv2D", "prev": ["leaky_re_lu_25"], "config": {"padding": "same", "kernel_initializer": {"class_name": "VarianceScaling", "config": {"distribution": "uniform", "scale": 1.0, "seed": null, "mode": "fan_avg"}}, "name": "conv2d_26", "bias_regularizer": null, "filters": 256, "bias_constraint": null, "activation": "linear", "trainable": true, "data_format": "channels_last", "kernel_constraint": null, "strides": [1, 1], "dilation_rate": [1, 1], "kernel_regularizer": {"class_name": "L1L2", "config": {"l2": 0.0005000000237487257, "l1": 0.0}}, "bias_initializer": {"class_name": "Zeros", "config": {}}, "use_bias": false, "activity_regularizer": null, "kernel_size": [3, 3]}, "input_shape": [40, 40, 128]}, "conv2d_27": {"class_name": "Conv2D", "prev": ["zero_padding2d_4"], "config": {"padding": "valid", "kernel_initializer": {"class_name": "VarianceScaling", "config": {"distribution": "uniform", "scale": 1.0, "seed": null, "mode": "fan_avg"}}, "name": "conv2d_27", "bias_regularizer": null, "filters": 512, "bias_constraint": null, "activation": "linear", "trainable": true, "data_format": "channels_last", "kernel_constraint": null, "strides": [2, 2], "dilation_rate": [1, 1], "kernel_regularizer": {"class_name": "L1L2", "config": {"l2": 0.0005000000237487257, "l1": 0.0}}, "bias_initializer": {"class_name": "Zeros", "config": {}}, "use_bias": false, "activity_regularizer": null, "kernel_size": [3, 3]}, "input_shape": [41, 41, 256]}, "conv2d_20": {"class_name": "Conv2D", "prev": ["leaky_re_lu_19"], "config": {"padding": "same", "kernel_initializer": {"class_name": "VarianceScaling", "config": {"distribution": "uniform", "scale": 1.0, "seed": null, "mode": "fan_avg"}}, "name": "conv2d_20", "bias_regularizer": null, "filters": 256, "bias_constraint": null, "activation": "linear", "trainable": true, "data_format": "channels_last", "kernel_constraint": null, "strides": [1, 1], "dilation_rate": [1, 1], "kernel_regularizer": {"class_name": "L1L2", "config": {"l2": 0.0005000000237487257, "l1": 0.0}}, "bias_initializer": {"class_name": "Zeros", "config": {}}, "use_bias": false, "activity_regularizer": null, "kernel_size": [3, 3]}, "input_shape": [40, 40, 128]}, "conv2d_21": {"class_name": "Conv2D", "prev": ["add_8"], "config": {"padding": "same", "kernel_initializer": {"class_name": "VarianceScaling", "config": {"distribution": "uniform", "scale": 1.0, "seed": null, "mode": "fan_avg"}}, "name": "conv2d_21", "bias_regularizer": null, "filters": 128, "bias_constraint": null, "activation": "linear", "trainable": true, "data_format": "channels_last", "kernel_constraint": null, "strides": [1, 1], "dilation_rate": [1, 1], "kernel_regularizer": {"class_name": "L1L2", "config": {"l2": 0.0005000000237487257, "l1": 0.0}}, "bias_initializer": {"class_name": "Zeros", "config": {}}, "use_bias": false, "activity_regularizer": null, "kernel_size": [1, 1]}, "input_shape": [40, 40, 256]}, "conv2d_22": {"class_name": "Conv2D", "prev": ["leaky_re_lu_21"], "config": {"padding": "same", "kernel_initializer": {"class_name": "VarianceScaling", "config": {"distribution": "uniform", "scale": 1.0, "seed": null, "mode": "fan_avg"}}, "name": "conv2d_22", "bias_regularizer": null, "filters": 256, "bias_constraint": null, "activation": "linear", "trainable": true, "data_format": "channels_last", "kernel_constraint": null, "strides": [1, 1], "dilation_rate": [1, 1], "kernel_regularizer": {"class_name": "L1L2", "config": {"l2": 0.0005000000237487257, "l1": 0.0}}, "bias_initializer": {"class_name": "Zeros", "config": {}}, "use_bias": false, "activity_regularizer": null, "kernel_size": [3, 3]}, "input_shape": [40, 40, 128]}, "conv2d_23": {"class_name": "Conv2D", "prev": ["add_9"], "config": {"padding": "same", "kernel_initializer": {"class_name": "VarianceScaling", "config": {"distribution": "uniform", "scale": 1.0, "seed": null, "mode": "fan_avg"}}, "name": "conv2d_23", "bias_regularizer": null, "filters": 128, "bias_constraint": null, "activation": "linear", "trainable": true, "data_format": "channels_last", "kernel_constraint": null, "strides": [1, 1], "dilation_rate": [1, 1], "kernel_regularizer": {"class_name": "L1L2", "config": {"l2": 0.0005000000237487257, "l1": 0.0}}, "bias_initializer": {"class_name": "Zeros", "config": {}}, "use_bias": false, "activity_regularizer": null, "kernel_size": [1, 1]}, "input_shape": [40, 40, 256]}, "leaky_re_lu_23": {"class_name": "LeakyReLU", "prev": ["batch_normalization_23"], "config": {"alpha": 0.10000000149011612, "trainable": true, "name": "leaky_re_lu_23"}, "input_shape": [40, 40, 128]}, "leaky_re_lu_18": {"class_name": "LeakyReLU", "prev": ["batch_normalization_18"], "config": {"alpha": 0.10000000149011612, "trainable": true, "name": "leaky_re_lu_18"}, "input_shape": [40, 40, 256]}, "leaky_re_lu_19": {"class_name": "LeakyReLU", "prev": ["batch_normalization_19"], "config": {"alpha": 0.10000000149011612, "trainable": true, "name": "leaky_re_lu_19"}, "input_shape": [40, 40, 128]}, "batch_normalization_18": {"class_name": "BatchNormalization", "prev": ["conv2d_18"], "config": {"gamma_initializer": {"class_name": "Ones", "config": {}}, "moving_mean_initializer": {"class_name": "Zeros", "config": {}}, "name": "batch_normalization_18", "epsilon": 0.001, "trainable": true, "center": true, "moving_variance_initializer": {"class_name": "Ones", "config": {}}, "beta_initializer": {"class_name": "Zeros", "config": {}}, "scale": true, "gamma_regularizer": null, "gamma_constraint": null, "beta_constraint": null, "beta_regularizer": null, "momentum": 0.99, "axis": -1}, "input_shape": [40, 40, 256]}, "batch_normalization_19": {"class_name": "BatchNormalization", "prev": ["conv2d_19"], "config": {"gamma_initializer": {"class_name": "Ones", "config": {}}, "moving_mean_initializer": {"class_name": "Zeros", "config": {}}, "name": "batch_normalization_19", "epsilon": 0.001, "trainable": true, "center": true, "moving_variance_initializer": {"class_name": "Ones", "config": {}}, "beta_initializer": {"class_name": "Zeros", "config": {}}, "scale": true, "gamma_regularizer": null, "gamma_constraint": null, "beta_constraint": null, "beta_regularizer": null, "momentum": 0.99, "axis": -1}, "input_shape": [40, 40, 128]}, "conv2d_44": {"class_name": "Conv2D", "prev": ["zero_padding2d_5"], "config": {"padding": "valid", "kernel_initializer": {"class_name": "VarianceScaling", "config": {"distribution": "uniform", "scale": 1.0, "seed": null, "mode": "fan_avg"}}, "name": "conv2d_44", "bias_regularizer": null, "filters": 1024, "bias_constraint": null, "activation": "linear", "trainable": true, "data_format": "channels_last", "kernel_constraint": null, "strides": [2, 2], "dilation_rate": [1, 1], "kernel_regularizer": {"class_name": "L1L2", "config": {"l2": 0.0005000000237487257, "l1": 0.0}}, "bias_initializer": {"class_name": "Zeros", "config": {}}, "use_bias": false, "activity_regularizer": null, "kernel_size": [3, 3]}, "input_shape": [21, 21, 512]}, "leaky_re_lu_22": {"class_name": "LeakyReLU", "prev": ["batch_normalization_22"], "config": {"alpha": 0.10000000149011612, "trainable": true, "name": "leaky_re_lu_22"}, "input_shape": [40, 40, 256]}, "leaky_re_lu_12": {"class_name": "LeakyReLU", "prev": ["batch_normalization_12"], "config": {"alpha": 0.10000000149011612, "trainable": true, "name": "leaky_re_lu_12"}, "input_shape": [40, 40, 256]}, "leaky_re_lu_13": {"class_name": "LeakyReLU", "prev": ["batch_normalization_13"], "config": {"alpha": 0.10000000149011612, "trainable": true, "name": "leaky_re_lu_13"}, "input_shape": [40, 40, 128]}, "leaky_re_lu_10": {"class_name": "LeakyReLU", "prev": ["batch_normalization_10"], "config": {"alpha": 0.10000000149011612, "trainable": true, "name": "leaky_re_lu_10"}, "input_shape": [40, 40, 256]}, "leaky_re_lu_11": {"class_name": "LeakyReLU", "prev": ["batch_normalization_11"], "config": {"alpha": 0.10000000149011612, "trainable": true, "name": "leaky_re_lu_11"}, "input_shape": [40, 40, 128]}, "batch_normalization_10": {"class_name": "BatchNormalization", "prev": ["conv2d_10"], "config": {"gamma_initializer": {"class_name": "Ones", "config": {}}, "moving_mean_initializer": {"class_name": "Zeros", "config": {}}, "name": "batch_normalization_10", "epsilon": 0.001, "trainable": true, "center": true, "moving_variance_initializer": {"class_name": "Ones", "config": {}}, "beta_initializer": {"class_name": "Zeros", "config": {}}, "scale": true, "gamma_regularizer": null, "gamma_constraint": null, "beta_constraint": null, "beta_regularizer": null, "momentum": 0.99, "axis": -1}, "input_shape": [40, 40, 256]}, "batch_normalization_11": {"class_name": "BatchNormalization", "prev": ["conv2d_11"], "config": {"gamma_initializer": {"class_name": "Ones", "config": {}}, "moving_mean_initializer": {"class_name": "Zeros", "config": {}}, "name": "batch_normalization_11", "epsilon": 0.001, "trainable": true, "center": true, "moving_variance_initializer": {"class_name": "Ones", "config": {}}, "beta_initializer": {"class_name": "Zeros", "config": {}}, "scale": true, "gamma_regularizer": null, "gamma_constraint": null, "beta_constraint": null, "beta_regularizer": null, "momentum": 0.99, "axis": -1}, "input_shape": [40, 40, 128]}, "batch_normalization_12": {"class_name": "BatchNormalization", "prev": ["conv2d_12"], "config": {"gamma_initializer": {"class_name": "Ones", "config": {}}, "moving_mean_initializer": {"class_name": "Zeros", "config": {}}, "name": "batch_normalization_12", "epsilon": 0.001, "trainable": true, "center": true, "moving_variance_initializer": {"class_name": "Ones", "config": {}}, "beta_initializer": {"class_name": "Zeros", "config": {}}, "scale": true, "gamma_regularizer": null, "gamma_constraint": null, "beta_constraint": null, "beta_regularizer": null, "momentum": 0.99, "axis": -1}, "input_shape": [40, 40, 256]}, "batch_normalization_13": {"class_name": "BatchNormalization", "prev": ["conv2d_13"], "config": {"gamma_initializer": {"class_name": "Ones", "config": {}}, "moving_mean_initializer": {"class_name": "Zeros", "config": {}}, "name": "batch_normalization_13", "epsilon": 0.001, "trainable": true, "center": true, "moving_variance_initializer": {"class_name": "Ones", "config": {}}, "beta_initializer": {"class_name": "Zeros", "config": {}}, "scale": true, "gamma_regularizer": null, "gamma_constraint": null, "beta_constraint": null, "beta_regularizer": null, "momentum": 0.99, "axis": -1}, "input_shape": [40, 40, 128]}, "batch_normalization_22": {"class_name": "BatchNormalization", "prev": ["conv2d_22"], "config": {"gamma_initializer": {"class_name": "Ones", "config": {}}, "moving_mean_initializer": {"class_name": "Zeros", "config": {}}, "name": "batch_normalization_22", "epsilon": 0.001, "trainable": true, "center": true, "moving_variance_initializer": {"class_name": "Ones", "config": {}}, "beta_initializer": {"class_name": "Zeros", "config": {}}, "scale": true, "gamma_regularizer": null, "gamma_constraint": null, "beta_constraint": null, "beta_regularizer": null, "momentum": 0.99, "axis": -1}, "input_shape": [40, 40, 256]}, "leaky_re_lu_27": {"class_name": "LeakyReLU", "prev": ["batch_normalization_27"], "config": {"alpha": 0.10000000149011612, "trainable": true, "name": "leaky_re_lu_27"}, "input_shape": [20, 20, 512]}, "conv2d_65": {"class_name": "Conv2D", "prev": ["leaky_re_lu_63"], "config": {"padding": "same", "kernel_initializer": {"class_name": "VarianceScaling", "config": {"distribution": "uniform", "scale": 1.0, "seed": null, "mode": "fan_avg"}}, "name": "conv2d_65", "bias_regularizer": null, "filters": 256, "bias_constraint": null, "activation": "linear", "trainable": true, "data_format": "channels_last", "kernel_constraint": null, "strides": [1, 1], "dilation_rate": [1, 1], "kernel_regularizer": {"class_name": "L1L2", "config": {"l2": 0.0005000000237487257, "l1": 0.0}}, "bias_initializer": {"class_name": "Zeros", "config": {}}, "use_bias": false, "activity_regularizer": null, "kernel_size": [1, 1]}, "input_shape": [20, 20, 512]}, "leaky_re_lu_26": {"class_name": "LeakyReLU", "prev": ["batch_normalization_26"], "config": {"alpha": 0.10000000149011612, "trainable": true, "name": "leaky_re_lu_26"}, "input_shape": [40, 40, 256]}, "conv2d_45": {"class_name": "Conv2D", "prev": ["leaky_re_lu_44"], "config": {"padding": "same", "kernel_initializer": {"class_name": "VarianceScaling", "config": {"distribution": "uniform", "scale": 1.0, "seed": null, "mode": "fan_avg"}}, "name": "conv2d_45", "bias_regularizer": null, "filters": 512, "bias_constraint": null, "activation": "linear", "trainable": true, "data_format": "channels_last", "kernel_constraint": null, "strides": [1, 1], "dilation_rate": [1, 1], "kernel_regularizer": {"class_name": "L1L2", "config": {"l2": 0.0005000000237487257, "l1": 0.0}}, "bias_initializer": {"class_name": "Zeros", "config": {}}, "use_bias": false, "activity_regularizer": null, "kernel_size": [1, 1]}, "input_shape": [10, 10, 1024]}, "leaky_re_lu_25": {"class_name": "LeakyReLU", "prev": ["batch_normalization_25"], "config": {"alpha": 0.10000000149011612, "trainable": true, "name": "leaky_re_lu_25"}, "input_shape": [40, 40, 128]}, "conv2d_12": {"class_name": "Conv2D", "prev": ["leaky_re_lu_11"], "config": {"padding": "same", "kernel_initializer": {"class_name": "VarianceScaling", "config": {"distribution": "uniform", "scale": 1.0, "seed": null, "mode": "fan_avg"}}, "name": "conv2d_12", "bias_regularizer": null, "filters": 256, "bias_constraint": null, "activation": "linear", "trainable": true, "data_format": "channels_last", "kernel_constraint": null, "strides": [1, 1], "dilation_rate": [1, 1], "kernel_regularizer": {"class_name": "L1L2", "config": {"l2": 0.0005000000237487257, "l1": 0.0}}, "bias_initializer": {"class_name": "Zeros", "config": {}}, "use_bias": false, "activity_regularizer": null, "kernel_size": [3, 3]}, "input_shape": [40, 40, 128]}, "conv2d_51": {"class_name": "Conv2D", "prev": ["add_22"], "config": {"padding": "same", "kernel_initializer": {"class_name": "VarianceScaling", "config": {"distribution": "uniform", "scale": 1.0, "seed": null, "mode": "fan_avg"}}, "name": "conv2d_51", "bias_regularizer": null, "filters": 512, "bias_constraint": null, "activation": "linear", "trainable": true, "data_format": "channels_last", "kernel_constraint": null, "strides": [1, 1], "dilation_rate": [1, 1], "kernel_regularizer": {"class_name": "L1L2", "config": {"l2": 0.0005000000237487257, "l1": 0.0}}, "bias_initializer": {"class_name": "Zeros", "config": {}}, "use_bias": false, "activity_regularizer": null, "kernel_size": [1, 1]}, "input_shape": [10, 10, 1024]}, "leaky_re_lu_69": {"class_name": "LeakyReLU", "prev": ["batch_normalization_69"], "config": {"alpha": 0.10000000149011612, "trainable": true, "name": "leaky_re_lu_69"}, "input_shape": [40, 40, 128]}, "batch_normalization_28": {"class_name": "BatchNormalization", "prev": ["conv2d_28"], "config": {"gamma_initializer": {"class_name": "Ones", "config": {}}, "moving_mean_initializer": {"class_name": "Zeros", "config": {}}, "name": "batch_normalization_28", "epsilon": 0.001, "trainable": true, "center": true, "moving_variance_initializer": {"class_name": "Ones", "config": {}}, "beta_initializer": {"class_name": "Zeros", "config": {}}, "scale": true, "gamma_regularizer": null, "gamma_constraint": null, "beta_constraint": null, "beta_regularizer": null, "momentum": 0.99, "axis": -1}, "input_shape": [20, 20, 256]}, "conv2d_53": {"class_name": "Conv2D", "prev": ["add_23"], "config": {"padding": "same", "kernel_initializer": {"class_name": "VarianceScaling", "config": {"distribution": "uniform", "scale": 1.0, "seed": null, "mode": "fan_avg"}}, "name": "conv2d_53", "bias_regularizer": null, "filters": 512, "bias_constraint": null, "activation": "linear", "trainable": true, "data_format": "channels_last", "kernel_constraint": null, "strides": [1, 1], "dilation_rate": [1, 1], "kernel_regularizer": {"class_name": "L1L2", "config": {"l2": 0.0005000000237487257, "l1": 0.0}}, "bias_initializer": {"class_name": "Zeros", "config": {}}, "use_bias": false, "activity_regularizer": null, "kernel_size": [1, 1]}, "input_shape": [10, 10, 1024]}, "leaky_re_lu_21": {"class_name": "LeakyReLU", "prev": ["batch_normalization_21"], "config": {"alpha": 0.10000000149011612, "trainable": true, "name": "leaky_re_lu_21"}, "input_shape": [40, 40, 128]}, "concatenate_2": {"class_name": "Concatenate", "prev": ["up_sampling2d_2", "add_11"], "config": {"trainable": true, "name": "concatenate_2", "axis": -1}, "input_shape": [[null, 40, 40, 256]]}, "concatenate_1": {"class_name": "Concatenate", "prev": ["up_sampling2d_1", "add_19"], "config": {"trainable": true, "name": "concatenate_1", "axis": -1}, "input_shape": [[null, 20, 20, 512]]}, "leaky_re_lu_63": {"class_name": "LeakyReLU", "prev": ["batch_normalization_63"], "config": {"alpha": 0.10000000149011612, "trainable": true, "name": "leaky_re_lu_63"}, "input_shape": [20, 20, 512]}, "conv2d_75": {"class_name": "Conv2D", "output": true, "prev": ["leaky_re_lu_72"], "config": {"padding": "same", "kernel_initializer": {"class_name": "VarianceScaling", "config": {"distribution": "uniform", "scale": 1.0, "seed": null, "mode": "fan_avg"}}, "name": "conv2d_75", "bias_regularizer": null, "filters": 255, "bias_constraint": null, "activation": "linear", "trainable": true, "data_format": "channels_last", "kernel_constraint": null, "strides": [1, 1], "dilation_rate": [1, 1], "kernel_regularizer": {"class_name": "L1L2", "config": {"l2": 0.0005000000237487257, "l1": 0.0}}, "bias_initializer": {"class_name": "Zeros", "config": {}}, "use_bias": true, "activity_regularizer": null, "kernel_size": [1, 1]}, "input_shape": [40, 40, 256]}, "conv2d_74": {"class_name": "Conv2D", "prev": ["leaky_re_lu_71"], "config": {"padding": "same", "kernel_initializer": {"class_name": "VarianceScaling", "config": {"distribution": "uniform", "scale": 1.0, "seed": null, "mode": "fan_avg"}}, "name": "conv2d_74", "bias_regularizer": null, "filters": 256, "bias_constraint": null, "activation": "linear", "trainable": true, "data_format": "channels_last", "kernel_constraint": null, "strides": [1, 1], "dilation_rate": [1, 1], "kernel_regularizer": {"class_name": "L1L2", "config": {"l2": 0.0005000000237487257, "l1": 0.0}}, "bias_initializer": {"class_name": "Zeros", "config": {}}, "use_bias": false, "activity_regularizer": null, "kernel_size": [3, 3]}, "input_shape": [40, 40, 128]}, "conv2d_73": {"class_name": "Conv2D", "prev": ["leaky_re_lu_70"], "config": {"padding": "same", "kernel_initializer": {"class_name": "VarianceScaling", "config": {"distribution": "uniform", "scale": 1.0, "seed": null, "mode": "fan_avg"}}, "name": "conv2d_73", "bias_regularizer": null, "filters": 128, "bias_constraint": null, "activation": "linear", "trainable": true, "data_format": "channels_last", "kernel_constraint": null, "strides": [1, 1], "dilation_rate": [1, 1], "kernel_regularizer": {"class_name": "L1L2", "config": {"l2": 0.0005000000237487257, "l1": 0.0}}, "bias_initializer": {"class_name": "Zeros", "config": {}}, "use_bias": false, "activity_regularizer": null, "kernel_size": [1, 1]}, "input_shape": [40, 40, 256]}, "conv2d_72": {"class_name": "Conv2D", "prev": ["leaky_re_lu_69"], "config": {"padding": "same", "kernel_initializer": {"class_name": "VarianceScaling", "config": {"distribution": "uniform", "scale": 1.0, "seed": null, "mode": "fan_avg"}}, "name": "conv2d_72", "bias_regularizer": null, "filters": 256, "bias_constraint": null, "activation": "linear", "trainable": true, "data_format": "channels_last", "kernel_constraint": null, "strides": [1, 1], "dilation_rate": [1, 1], "kernel_regularizer": {"class_name": "L1L2", "config": {"l2": 0.0005000000237487257, "l1": 0.0}}, "bias_initializer": {"class_name": "Zeros", "config": {}}, "use_bias": false, "activity_regularizer": null, "kernel_size": [3, 3]}, "input_shape": [40, 40, 128]}, "conv2d_71": {"class_name": "Conv2D", "prev": ["leaky_re_lu_68"], "config": {"padding": "same", "kernel_initializer": {"class_name": "VarianceScaling", "config": {"distribution": "uniform", "scale": 1.0, "seed": null, "mode": "fan_avg"}}, "name": "conv2d_71", "bias_regularizer": null, "filters": 128, "bias_constraint": null, "activation": "linear", "trainable": true, "data_format": "channels_last", "kernel_constraint": null, "strides": [1, 1], "dilation_rate": [1, 1], "kernel_regularizer": {"class_name": "L1L2", "config": {"l2": 0.0005000000237487257, "l1": 0.0}}, "bias_initializer": {"class_name": "Zeros", "config": {}}, "use_bias": false, "activity_regularizer": null, "kernel_size": [1, 1]}, "input_shape": [40, 40, 256]}, "leaky_re_lu_62": {"class_name": "LeakyReLU", "prev": ["batch_normalization_62"], "config": {"alpha": 0.10000000149011612, "trainable": true, "name": "leaky_re_lu_62"}, "input_shape": [20, 20, 256]}, "leaky_re_lu_68": {"class_name": "LeakyReLU", "prev": ["batch_normalization_68"], "config": {"alpha": 0.10000000149011612, "trainable": true, "name": "leaky_re_lu_68"}, "input_shape": [40, 40, 256]}, "conv2d_9": {"class_name": "Conv2D", "prev": ["leaky_re_lu_8"], "config": {"padding": "same", "kernel_initializer": {"class_name": "VarianceScaling", "config": {"distribution": "uniform", "scale": 1.0, "seed": null, "mode": "fan_avg"}}, "name": "conv2d_9", "bias_regularizer": null, "filters": 128, "bias_constraint": null, "activation": "linear", "trainable": true, "data_format": "channels_last", "kernel_constraint": null, "strides": [1, 1], "dilation_rate": [1, 1], "kernel_regularizer": {"class_name": "L1L2", "config": {"l2": 0.0005000000237487257, "l1": 0.0}}, "bias_initializer": {"class_name": "Zeros", "config": {}}, "use_bias": false, "activity_regularizer": null, "kernel_size": [3, 3]}, "input_shape": [80, 80, 64]}, "conv2d_8": {"class_name": "Conv2D", "prev": ["add_2"], "config": {"padding": "same", "kernel_initializer": {"class_name": "VarianceScaling", "config": {"distribution": "uniform", "scale": 1.0, "seed": null, "mode": "fan_avg"}}, "name": "conv2d_8", "bias_regularizer": null, "filters": 64, "bias_constraint": null, "activation": "linear", "trainable": true, "data_format": "channels_last", "kernel_constraint": null, "strides": [1, 1], "dilation_rate": [1, 1], "kernel_regularizer": {"class_name": "L1L2", "config": {"l2": 0.0005000000237487257, "l1": 0.0}}, "bias_initializer": {"class_name": "Zeros", "config": {}}, "use_bias": false, "activity_regularizer": null, "kernel_size": [1, 1]}, "input_shape": [80, 80, 128]}, "conv2d_5": {"class_name": "Conv2D", "prev": ["zero_padding2d_2"], "config": {"padding": "valid", "kernel_initializer": {"class_name": "VarianceScaling", "config": {"distribution": "uniform", "scale": 1.0, "seed": null, "mode": "fan_avg"}}, "name": "conv2d_5", "bias_regularizer": null, "filters": 128, "bias_constraint": null, "activation": "linear", "trainable": true, "data_format": "channels_last", "kernel_constraint": null, "strides": [2, 2], "dilation_rate": [1, 1], "kernel_regularizer": {"class_name": "L1L2", "config": {"l2": 0.0005000000237487257, "l1": 0.0}}, "bias_initializer": {"class_name": "Zeros", "config": {}}, "use_bias": false, "activity_regularizer": null, "kernel_size": [3, 3]}, "input_shape": [161, 161, 64]}, "conv2d_4": {"class_name": "Conv2D", "prev": ["leaky_re_lu_3"], "config": {"padding": "same", "kernel_initializer": {"class_name": "VarianceScaling", "config": {"distribution": "uniform", "scale": 1.0, "seed": null, "mode": "fan_avg"}}, "name": "conv2d_4", "bias_regularizer": null, "filters": 64, "bias_constraint": null, "activation": "linear", "trainable": true, "data_format": "channels_last", "kernel_constraint": null, "strides": [1, 1], "dilation_rate": [1, 1], "kernel_regularizer": {"class_name": "L1L2", "config": {"l2": 0.0005000000237487257, "l1": 0.0}}, "bias_initializer": {"class_name": "Zeros", "config": {}}, "use_bias": false, "activity_regularizer": null, "kernel_size": [3, 3]}, "input_shape": [160, 160, 32]}, "conv2d_7": {"class_name": "Conv2D", "prev": ["leaky_re_lu_6"], "config": {"padding": "same", "kernel_initializer": {"class_name": "VarianceScaling", "config": {"distribution": "uniform", "scale": 1.0, "seed": null, "mode": "fan_avg"}}, "name": "conv2d_7", "bias_regularizer": null, "filters": 128, "bias_constraint": null, "activation": "linear", "trainable": true, "data_format": "channels_last", "kernel_constraint": null, "strides": [1, 1], "dilation_rate": [1, 1], "kernel_regularizer": {"class_name": "L1L2", "config": {"l2": 0.0005000000237487257, "l1": 0.0}}, "bias_initializer": {"class_name": "Zeros", "config": {}}, "use_bias": false, "activity_regularizer": null, "kernel_size": [3, 3]}, "input_shape": [80, 80, 64]}, "conv2d_6": {"class_name": "Conv2D", "prev": ["leaky_re_lu_5"], "config": {"padding": "same", "kernel_initializer": {"class_name": "VarianceScaling", "config": {"distribution": "uniform", "scale": 1.0, "seed": null, "mode": "fan_avg"}}, "name": "conv2d_6", "bias_regularizer": null, "filters": 64, "bias_constraint": null, "activation": "linear", "trainable": true, "data_format": "channels_last", "kernel_constraint": null, "strides": [1, 1], "dilation_rate": [1, 1], "kernel_regularizer": {"class_name": "L1L2", "config": {"l2": 0.0005000000237487257, "l1": 0.0}}, "bias_initializer": {"class_name": "Zeros", "config": {}}, "use_bias": false, "activity_regularizer": null, "kernel_size": [1, 1]}, "input_shape": [80, 80, 128]}, "conv2d_1": {"class_name": "Conv2D", "prev": ["input_1:0"], "config": {"padding": "same", "kernel_initializer": {"class_name": "VarianceScaling", "config": {"distribution": "uniform", "scale": 1.0, "seed": null, "mode": "fan_avg"}}, "name": "conv2d_1", "bias_regularizer": null, "filters": 32, "bias_constraint": null, "activation": "linear", "trainable": true, "data_format": "channels_last", "kernel_constraint": null, "strides": [1, 1], "dilation_rate": [1, 1], "kernel_regularizer": {"class_name": "L1L2", "config": {"l2": 0.0005000000237487257, "l1": 0.0}}, "bias_initializer": {"class_name": "Zeros", "config": {}}, "use_bias": false, "activity_regularizer": null, "kernel_size": [3, 3]}, "input_shape": [320, 320, 3]}, "conv2d_3": {"class_name": "Conv2D", "prev": ["leaky_re_lu_2"], "config": {"padding": "same", "kernel_initializer": {"class_name": "VarianceScaling", "config": {"distribution": "uniform", "scale": 1.0, "seed": null, "mode": "fan_avg"}}, "name": "conv2d_3", "bias_regularizer": null, "filters": 32, "bias_constraint": null, "activation": "linear", "trainable": true, "data_format": "channels_last", "kernel_constraint": null, "strides": [1, 1], "dilation_rate": [1, 1], "kernel_regularizer": {"class_name": "L1L2", "config": {"l2": 0.0005000000237487257, "l1": 0.0}}, "bias_initializer": {"class_name": "Zeros", "config": {}}, "use_bias": false, "activity_regularizer": null, "kernel_size": [1, 1]}, "input_shape": [160, 160, 64]}, "conv2d_2": {"class_name": "Conv2D", "prev": ["zero_padding2d_1"], "config": {"padding": "valid", "kernel_initializer": {"class_name": "VarianceScaling", "config": {"distribution": "uniform", "scale": 1.0, "seed": null, "mode": "fan_avg"}}, "name": "conv2d_2", "bias_regularizer": null, "filters": 64, "bias_constraint": null, "activation": "linear", "trainable": true, "data_format": "channels_last", "kernel_constraint": null, "strides": [2, 2], "dilation_rate": [1, 1], "kernel_regularizer": {"class_name": "L1L2", "config": {"l2": 0.0005000000237487257, "l1": 0.0}}, "bias_initializer": {"class_name": "Zeros", "config": {}}, "use_bias": false, "activity_regularizer": null, "kernel_size": [3, 3]}, "input_shape": [321, 321, 32]}, "leaky_re_lu_67": {"class_name": "LeakyReLU", "prev": ["batch_normalization_67"], "config": {"alpha": 0.10000000149011612, "trainable": true, "name": "leaky_re_lu_67"}, "input_shape": [40, 40, 128]}}